models/infection/sum_bias/model.latest.pt (torch_old, 3709 bytes, 12 tensors)

encoder.edge.W_edge f4 [4, 2]
1.0714843 0.00013920628 6.0529455e-05 -5.3414374e-06 -0.9598802 6.9177986e-06 1.2911126e-05 -5.7831458e-05
00000000: 6626 893f e7f7 1139 02e1 7d38 993a b3b6
00000010: b5ba 75bf 701f e836 dd9c 5837 0e90 72b8

encoder.edge.bias f4 [4]
0.6749411 -0.00010891621 0.014589084 0.00023712526
00000000: f1c8 2c3f f269 e4b8 0e07 6f3c d4a4 7839

encoder.node.W_node f4 [8, 4]
-1.0865366 0.67852813 2.3585893e-05 8.698101e-05 -0.63406026 1.1785648 0.00040094295 -3.2795477e-05
1.165311 -0.65020484 -0.00015232184 7.9258825e-05 2.7341095e-05 -0.000149919 0.00042067748 0.0001298636
-0.8548627 -0.15635781 -1.4653662e-05 2.788313e-05 -0.75888765 -0.047218055 -6.2629435e-05 -3.196155e-05
-0.00010723973 -0.9911901 -0.00011282062 0.00029075664 4.267421e-05 -8.8988716e-05 -4.4181124e-05 1.69733e-05
00000000: a213 8bbf 05b4 2d3f 52da c537 9369 b638
00000010: c651 22bf 36db 963f a735 d239 e08d 09b8
00000020: e928 953f d373 26bf 95b8 1fb9 c237 a638
00000030: 8e5a e537 9333 1db9 608e dc39 ff2b 0839
00000040: 48d8 5abf 431c 20be 00d9 75b7 91e6 e937
00000050: 7646 42bf b867 41bd ec57 83b8 740e 06b8
00000060: e4e5 e0b8 a2be 7dbf 1c9a ecb8 b270 9839
00000070: 16fd 3238 749f bab8 1f4f 39b8 e261 8e37

encoder.node.bias f4 [8]
0.46576533 0.5443248 0.5774336 4.64695e-05 0.350506 0.70565367 0.86044365 1.0969667e-06
00000000: cb78 ee3e df58 0b3f b0d2 133f 3fe8 4238
00000010: 8675 b33e b8a5 343f 0946 5c3f 7d3b 9335

hidden.edge.W_edge f4 [8, 4]
-0.4408896 0.000110255954 0.29855135 2.9873741e-05 7.802051e-05 0.00020218552 -0.00028828118 0.00021010725
5.9966296e-05 3.876324e-05 -4.2645726e-05 -1.1538234e-05 8.39992e-05 3.959909e-06 0.00013998931 -4.606752e-05
0.00010065819 -0.00038755988 -0.00013205718 -0.0001940985 3.5021287e-05 9.9203244e-05 0.00037054805 -0.00017442905
-1.1445007 9.575033e-06 0.43807554 9.389484e-05 0.00014490334 -0.00017384952 -5.8153804e-05 -2.2736262e-05
00000000: 48bc e1be 3739 e738 b9db 983e 5f99 fa37
00000010: f19e a338 c301 5439 7224 97b9 3c50 5c39
00000020: 5284 7b38 b695 2238 80de 32b8 5694 41b7
00000030: ba28 b038 5cdf 8436 18ca 1239 9f38 41b8
00000040: 7418 d338 6831 cbb9 d478 0ab9 eb86 4bb9
00000050: d2e3 1238 560b d038 1e46 c239 f1e6 36b9
00000060: 007f 92bf 74a4 2037 704b e03e 69e9 c438
00000070: 32f1 1739 604b 36b9 2cea 73b8 c0b9 beb7

hidden.edge.W_sender f4 [8, 8]
-0.00013836191 -0.0008772582 0.41943848 7.6479795e-05 -0.12524179 -0.12680514 7.0503826e-05 0.00012342722
6.815963e-05 7.333484e-06 -2.1096646e-05 8.831106e-05 -4.798276e-05 5.214161e-05 2.9649389e-06 8.040845e-05
-7.7647994e-05 -0.000111023954 0.37809563 -6.4038586e-06 -7.690687e-05 -0.00014796329 -0.00024631023 0.00020600864
-9.716231e-05 -2.8758303e-05 -7.2721225e-05 -4.8296275e-05 0.00010053958 -2.5243487e-05 -0.00020638545 0.00019774114
0.0002090433 -1.4328451e-05 -7.401712e-06 -3.477956e-05 1.0155592e-05 3.740335e-05 4.9988248e-05 3.777025e-05
9.411834e-05 -3.3031574e-05 -0.0002032427 -5.5027736e-05 -4.7688463e-05 0.0004888572 -5.0381972e-05 0.0001661874
-7.431972e-06 5.457068e-05 0.8528514 6.137363e-06 -0.23646718 -0.32802346 0.18246645 -0.00025880893
-0.00011449077 0.0001461137 -4.4778997e-05 -0.00014665555 -5.486977e-05 0.00023523055 9.0515954e-05 -2.6341124e-06
00000000: 3e15 11b9 cdf7 65ba a4c0 d63e c763 a038
00000010: 623f 00be 35d9 01be 74db 9338 3e6c 0139
00000020: ecf0 8e38 2612 f636 b4f8 b0b7 a433 b938
00000030: 1941 49b8 a1b2 5a38 43f9 4636 f5a0 a838
00000040: f3d6 a2b8 88d5 e8b8 c095 c13e bae0 d6b6
00000050: 1049 a1b8 9826 1bb9 3323 81b9 0604 5839
00000060: 9ec3 cbb8 fc3d f1b7 e981 98b8 bb91 4ab8
00000070: c7d8 d238 fac1 d3b7 2c69 58b9 bc58 4f39
00000080: a232 5b39 3a64 70b7 395c f8b6 45e0 11b8
00000090: ef61 2a37 8be1 1c38 79aa 5138 7f6b 1e38
000000a0: 6661 c538 628b 0ab8 8c1d 55b9 95cd 66b8
000000b0: 1905 48b8 a726 003a 3b51 53b8 9742 2e39
000000c0: 2760 f9b6 d2e2 6438 7854 5a3f 8cef cd36
000000d0: 7424 72be b1f2 a7be 7cd8 3a3e bfb0 87b9
000000e0: c41a f0b8 1936 1939 15d1 3bb8 8dc7 19b9
000000f0: f823 66b8 38a8 7639 62d3 bd38 b5c5 30b6

hidden.edge.bias f4 [8]
0.022472426 9.6632075e-06 -5.4046654e-05 -4.991696e-05 -2.9879879e-05 0.00016778616 -4.814788e-05 7.795344e-05
00000000: 1818 b83c 291f 2237 27b0 62b8 ed5d 51b8
00000010: 8da6 fab7 c1ef 2f39 64f2 49b8 ef7a a338

hidden.node.W_node f4 [8, 8]
0.0002021057 -6.3240186e-05 0.0001829188 -2.0795892e-06 -3.541154e-05 -4.913353e-06 0.00012481885 -0.00019765295
-0.51222146 -0.45196247 0.73645574 2.3877375e-05 -0.00012515647 -0.00012555708 0.7036678 -1.0065951e-05
0.36410782 -0.00017049476 -0.3761789 -0.00024042523 0.75085723 0.8385578 0.5906169 0.00017011326
0.66136694 0.5973084 -3.298339e-05 1.51173335e-05 0.03155428 -4.3821332e-05 -0.06320092 1.0165407e-05
-0.8379942 -0.7632946 0.8194454 0.000198144 -0.00015596232 0.000103336104 0.61002666 0.0002925519
0.00018242569 7.423535e-05 -4.945903e-05 -0.00030788948 2.6134046e-05 6.897565e-05 -0.00024278006 0.00017810288
0.87126315 0.915702 -0.34728563 -0.00010444441 0.3576139 0.19997402 -0.21534276 0.00010540656
0.35393512 -8.128937e-05 -0.2494001 -1.2901998e-05 0.42867044 0.5339654 0.2663693 -1.2133039e-05
00000000: 56ec 5339 d19f 84b8 e4cd 3f39 128f 0bb6
00000010: da86 14b8 62dd a4b6 cee1 0239 0f41 4fb9
00000020: f220 03bf a067 e7be 5d88 3c3f 464c c837
00000030: 6f3c 03b9 f9a7 03b9 9323 343f eee0 28b7
00000040: 576c ba3e d7c6 32b9 859a c0be a81a 7cb9
00000050: 2e38 403f b9ab 563f ab32 173f 6e60 3239
00000060: 584f 293f 34e9 183f a557 0ab8 74a0 7d37
00000070: 103f 013d cccc 37b8 7c6f 81bd 178c 2a37
00000080: ca86 56bf 4667 43bf 2cc7 513f e0c4 4f39
00000090: d189 23b9 26b6 d838 b52a 1c3f a761 9939
000000a0: 8649 3f39 cdae 9b38 3b72 4fb8 3a6c a1b9
000000b0: 703a db37 05a7 9038 c792 7eb9 21c1 3a39
000000c0: 1a0b 5f3f 726b 6a3f 6ccf b1be 2a09 dbb8
000000d0: 2b19 b73e fdc5 4c3e d082 5cbe b70d dd38
000000e0: fc36 b53e e679 aab8 bd62 7fbe a975 58b7
000000f0: b17a db3e f5b1 083f 8f61 883e 018f 4bb7

hidden.node.W_incoming f4 [8, 8]
-0.00022340765 -0.00010161819 -5.6984907e-05 9.083969e-05 4.488707e-05 7.444644e-05 -0.00025766756 5.8700607e-05
0.08386665 -0.00010455692 0.2587395 -1.9652063e-05 -0.00020987407 -0.00011457499 0.62804604 -5.486529e-06
-0.60771203 -5.770287e-05 -0.19327027 0.00026555065 -0.00021275146 4.052969e-05 -0.96236527 8.822489e-06
2.3862904e-06 -0.00018252112 -1.2581441e-05 -2.0346088e-06 -0.0001987994 -1.5023746e-05 -0.13951223 8.383545e-06
0.3444769 -5.2593277e-05 -6.240852e-05 -1.5203573e-05 -9.951842e-05 0.00010652618 0.6671451 -0.00013072517
6.2484683e-06 9.100547e-05 0.00019393084 0.00016669404 -4.1545074e-05 0.00015831995 0.00020905925 -6.9603586e-05
-0.2020294 -0.001778052 -0.1073131 -0.00014150709 9.4811956e-05 0.077754 -0.18346857 3.3436125e-05
-0.1347242 0.00012070187 7.730114e-05 0.00024615772 -2.7117881e-05 0.00019265218 -0.7504236 8.4075255e-06
00000000: 8942 6ab9 da1b d5b8 1403 6fb8 3081 be38
00000010: 2045 3c38 2120 9c38 8e17 87b9 4c35 7638
00000020: 47c2 ab3d 9245 dbb8 8179 843e 7cda a4b7
00000030: a411 5cb9 fb47 f0b8 a0c7 203f ed18 b8b6
00000040: 0493 1bbf fc05 72b8 a4e8 45be 9b39 8b39
00000050: 0916 5fb9 6cfe 2938 925d 76bf 4d04 1437
00000060: 2824 2036 2463 3fb9 e114 53b7 508a 08b6
00000070: cf74 50b9 7f0e 7cb7 4bdc 0ebe 0da7 0c37
00000080: 475f b03e 9a97 5cb8 52e1 82b8 d912 7fb7
00000090: 8bb4 d0b8 cf66 df38 05ca 2a3f 4513 09b9
000000a0: efa9 d136 31da be38 ea59 4b39 97ca 2e39
000000b0: af40 2eb8 b002 2639 ea36 5b39 24f8 91b8
000000c0: cce0 4ebe 860d e9ba f8c6 dbbd 8561 14b9
000000d0: c8d5 c638 7d3d 9f3d 2fdf 3bbe c43d 0c38
000000e0: 24f5 09be 5321 fd38 bc1c a238 bb0e 8139
000000f0: 357b e3b7 ad02 4a39 c31b 40bf 0c0e 0d37

hidden.node.bias f4 [8]
-0.000489669 6.826605e-05 1.314454e-05 0.009842939 -5.3315866e-06 0.00020792699 0.23851311 0.104257874
00000000: 215d 00ba 0e2a 8f38 5f87 5c37 4744 213c
00000010: fbe5 b2b6 fa06 5a39 c83c 743e 2785 d53d

readout_nodes.W_node f4 [1, 8]
-5.1628547e-05 0.7099014 -1.0641626 -0.75058174 1.1900711 -0.0003326927 -0.98964846 -0.77589357
00000000: bb8b 58b8 19bc 353f 7b36 88bf 2026 40bf
00000010: 4054 983f 426d aeb9 9a59 7dbf f6a0 46bf

readout_globals.W_node f4 [1, 8]
5.9992406e-05 -0.00014047029 -0.00012275758 -3.366215e-05 0.00038251677 0.00018397141 -8.170071e-05 0.00017368497
00000000: 5ba0 7b38 354b 13b9 7db8 00b9 7530 0db8
00000010: 888c c839 73e8 4039 bc56 abb8 341f 3639
