models/infection/max_bias/model.latest.pt (torch_old, 3709 bytes, 12 tensors)

encoder.edge.W_edge f4 [4, 2]
-0.36629933 0.00010618992 1.4611988 8.789589e-05 -0.627173 2.0605517e-06 8.94883e-05 2.2239132e-05
00000000: 968b bbbe 47b2 de38 9008 bb3f bf54 b838
00000010: 698e 20bf 0248 0a36 aaab bb38 2c8e ba37

encoder.edge.bias f4 [4]
0.3489807 0.6074687 0.13555093 0.00012912974
00000000: 99ad b23e 1283 1b3f ddcd 0a3e 0067 0739

encoder.node.W_node f4 [8, 4]
-0.9101004 1.1853602 -5.4254077e-05 -7.9569974e-05 1.0630844 -0.42734414 0.00017340279 -0.00020288311
-0.7193625 -0.054638535 -2.6658372e-06 -0.00012770163 -1.3693815e-05 -5.588835e-05 -0.00023254543 4.03312e-05
-0.84362245 -0.078211635 0.00013652614 8.100175e-05 0.0038940704 -0.77764004 -0.00011678904 8.844754e-05
-0.37558243 -0.1800446 0.00012550844 0.00022576474 1.2793355 -0.65190727 -0.00012880976 6.5232765e-05
00000000: 57fc 68bf e2b9 973f df8e 63b8 cede a6b8
00000010: 2613 883f dacc dabe 75d3 3539 05bd 54b9
00000020: 2428 38bf a8cc 5fbd bce6 32b6 a5e7 05b9
00000030: 7dbe 65b7 a969 6ab8 70d7 73b9 4c29 2938
00000040: a4f7 57bf 6c2d a0bd 7528 0f39 7cdf a938
00000050: a933 7f3b 6b13 47bf a3ec f4b8 e97c b938
00000060: 574c c0be 9d5d 38be ea9a 0339 43bb 6c39
00000070: 44c1 a33f 65e3 26bf 1b11 07b9 93cd 8838

encoder.node.bias f4 [8]
1.0081744 0.42140862 0.4005193 7.102024e-05 0.59269214 0.24641864 0.101830855 0.56199944
00000000: dc0b 813f dfc2 d73e de10 cd3e b3f0 9438
00000010: acba 173f 2b55 7c3e b28c d03d 32df 0f3f

hidden.edge.W_edge f4 [8, 4]
-1.7915311e-06 0.00018659474 1.5939539e-05 -0.00019307205 -3.4643865e-05 -0.00017722277 9.447625e-05 0.00014129245
-0.00011015567 0.00012334129 0.00012216024 9.7039214e-05 2.2912149e-05 6.41316e-05 -5.882369e-05 -6.8373374e-05
-7.02105e-06 9.27278e-05 0.031109322 0.00011676588 0.1388531 0.44488326 0.00010004811 0.0001240118
-2.371453e-05 0.00010525734 2.6195288e-05 -0.00024219294 0.6306976 -1.1541382 0.5227898 5.04328e-05
00000000: 8a74 f0b5 a5a8 4339 e6b5 8537 6273 4ab9
00000010: 914e 11b8 e0d4 39b9 8d21 c638 e727 1439
00000020: 6003 e7b8 2d55 0139 2418 0039 8881 cb38
00000030: 7733 c037 647e 8638 75b9 76b8 ad63 8fb8
00000040: 5c96 ebb6 dc76 c238 fad8 fe3c 34e0 f438
00000050: 822f 0e3e bdc7 e33e ecd0 d138 2a09 0239
00000060: 91ee c6b7 9bbd dc38 f4bd db37 2cf5 7db9
00000070: 6675 213f cdba 93bf 8dd5 053f cf87 5338

hidden.edge.W_sender f4 [8, 8]
0.00011116313 -4.410348e-05 -0.00014399903 -6.330036e-05 0.00011135289 -1.2888797e-05 0.000113397386 5.579141e-07
0.00014200718 -1.2086766e-06 0.00017557303 0.00012953505 0.00019907023 -0.00010223243 -4.4149725e-05 -0.00014992175
0.008308192 0.00020800243 0.031433962 5.433562e-05 -9.0136775e-05 7.4410986e-05 4.8326114e-05 -7.170598e-05
0.00015390613 -0.00016288162 -0.0001358142 -2.372728e-05 -0.00014732979 0.000110491696 -0.00022864995 7.533334e-05
-6.812241e-05 -1.9269513e-05 0.106706545 4.347403e-05 0.12835094 3.074033e-05 0.1993906 -7.245711e-05
-0.00011504124 -2.0189447e-05 0.012940993 7.064671e-05 -6.8401664e-07 0.00013583424 0.1043726 -4.2163985e-05
-3.7699487e-05 -7.295973e-05 3.54719e-05 -2.8080985e-06 0.00015933032 3.71112e-05 2.455044e-05 0.00022379556
-0.00012809169 0.64742064 -0.14705041 0.00016620009 -0.65342903 0.28649208 -0.1610529 0.66143703
00000000: 4020 e938 c0fb 38b8 72fe 16b9 1fc0 84b8
00000010: 2186 e938 f63c 58b7 c2cf ed38 91c3 1535
00000020: c3e7 1439 d039 a2b5 071a 3839 cdd3 0739
00000030: 82bd 5039 9e65 d6b8 682d 39b8 5034 1db9
00000040: 151f 083c 3a1b 5a39 e6c0 003d 6de6 6338
00000050: d007 bdb8 180d 9c38 c5b1 4a38 db60 96b8
00000060: dd61 2139 34cb 2ab9 5969 0eb9 f209 c7b7
00000070: 8a7c 1ab9 c7b7 e738 c1c1 6fb9 47fc 9d38
00000080: f1dc 8eb8 f7a4 a1b7 f688 da3d e257 3638
00000090: 6e6e 033e 2eef 0038 0d2d 4c3e 1df4 97b8
000000a0: 4c42 f1b8 825c a9b7 7506 543c 2a28 9438
000000b0: 449d 37b5 ba6e 0e39 4dc1 d53d 3cd9 30b8
000000c0: 841f 1eb8 f501 99b8 aac7 1438 c472 3cb6
000000d0: e811 2739 d9a7 1b38 abf1 cd37 aaaa 6a39
000000e0: 5a50 06b9 5cbd 253f 6294 16be ff45 2e39
000000f0: 2047 27bf 17af 923e 0deb 24be f053 293f

hidden.edge.bias f4 [8]
0.0001610344 -0.0002249313 0.1939526 -8.9118774e-05 0.4574933 0.1303246 -3.520457e-05 0.12627748
00000000: 58db 2839 89db 6bb9 839b 463e 47e5 bab8
00000010: 903c ea3e d073 053e 9fa8 13b8 e24e 013e

hidden.node.W_node f4 [8, 8]
-0.00012663173 0.00019914214 -0.00018786863 -0.00016752366 0.00011866393 0.00017671702 5.2291507e-06 -0.0001295824
0.9141776 -0.08906843 0.66447455 2.6937947e-05 0.30871058 0.08255135 0.11637178 -0.38272843
1.3893713 4.477889e-05 0.17909202 -0.00010612678 0.59350795 0.12541445 0.08465194 -0.5831559
0.00017121474 -5.8646903e-05 -9.077086e-05 -2.7354039e-05 -9.3534756e-05 4.1253013e-05 5.3987937e-05 0.00020566402
0.0001720211 0.0002907019 2.6352536e-05 -2.3703005e-05 -2.0506675e-05 -2.4961839e-05 0.008408339 3.1890195e-05
-1.0697088 0.46239358 1.6445867e-05 0.00014521585 0.00020603479 0.7004471 0.00032686736 0.7309377
0.7895843 -0.00014967028 0.22213721 -0.00013129416 0.7018887 0.00025106597 0.14044483 -0.25172952
0.00027638962 0.00025862537 0.00014883415 -0.0002401195 -0.00022031354 -3.1288408e-05 -9.391663e-06 -0.00038055252
00000000: 72c8 04b9 d0d0 5039 9afe 44b9 4aa9 2fb9
00000010: 36db f838 1d4d 3939 1076 af36 83e0 07b9
00000020: 8b07 6a3f 8269 b6bd 011b 2a3f cdf8 e137
00000030: 500f 9e3e af10 a93d 5454 ee3d fbf4 c3be
00000040: ebd6 b13f f8d0 3b38 e663 373e 6290 deb8
00000050: 23f0 173f a56c 003e ff5d ad3d b449 15bf
00000060: 1b88 3339 a2fb 75b8 3c5c beb8 5a76 e5b7
00000070: 1728 c4b8 1607 2d38 1b71 6238 84a7 5739
00000080: 9060 3439 5969 9839 a40f dd37 d1d5 c6b7
00000090: c005 acb7 2465 d1b7 21c3 093c d6c1 0538
000000a0: 38ec 88bf dabe ec3e 3bf5 8937 1545 1839
000000b0: 0b0b 5839 8050 333f 655f ab39 bc1e 3b3f
000000c0: 3222 4a3f cff0 1cb9 f077 633e 02ac 09b9
000000d0: faae 333f 81a1 8339 c5d0 0f3e b1e2 80be
000000e0: 63e8 9039 1c98 8739 5d10 1c39 96c8 7bb9
000000f0: f703 67b9 ac3b 03b8 e390 1db7 e584 c7b9

hidden.node.W_incoming f4 [8, 8]
-8.826768e-05 1.794762e-05 -0.00018095355 -0.00017698156 -0.00021819987 -7.088819e-05 -4.6482237e-05 0.0001341164
-1.6229535e-05 5.242801e-06 0.035856884 0.0019524418 0.5236248 0.3968286 5.656065e-05 -0.63959485
6.616759e-05 -0.000106831016 0.4039555 0.08392346 9.419718e-06 0.3018694 -0.00020619495 -0.61058146
-0.00017335378 9.641871e-05 4.982658e-05 -8.499664e-05 -1.5235711e-05 -9.392501e-05 6.599674e-05 0.00010695356
-4.1711195e-05 0.000114416005 -0.041204754 -8.563348e-05 0.0100821955 -0.00015158814 -9.88295e-05 0.34454337
-0.00013671957 -8.054454e-05 -2.7002072e-05 -4.3520654e-06 7.130033e-05 -2.1989137e-05 -0.00018911576 0.7985024
-7.610402e-05 -0.00017411841 0.114044234 -6.0897888e-05 0.38779697 0.23036891 -1.942695e-05 -0.6504822
3.8779697e-07 -6.665722e-06 3.104725e-05 0.00014994438 0.000115997354 4.372483e-05 3.7121074e-05 0.00024442095
00000000: 5a1c b9b8 388e 9637 59be 3db9 2094 39b9
00000010: 95cc 64b9 cfa9 94b8 ecf5 42b8 99a1 0c39
00000020: a924 88b7 51eb af36 abde 123d 13e9 ff3a
00000030: 460c 063f 1e2d cb3e 893b 6d38 7dbc 23bf
00000040: 74c3 8a38 770a e0b8 41d3 ce3e 10e0 ab3d
00000050: 6109 1e37 a08e 9a3e 0936 58b9 114f 1cbf
00000060: 4dc6 35b9 6734 ca38 e2fc 5038 3940 b2b8
00000070: e19c 7fb7 9bf9 c4b8 bb67 8a38 414c e038
00000080: 0ef3 2eb8 a0f2 ef38 51c6 28bd 2096 b3b8
00000090: cb2f 253c a2f3 1eb9 af42 cfb8 fd67 b03e
000000a0: 615c 0fb9 05ea a8b8 8282 e2b7 f507 92b6
000000b0: 1387 9538 5075 b8b7 604d 46b9 a76a 4c3f
000000c0: 099a 9fb8 8e93 36b9 0690 e93d 9c6c 7fb8
000000d0: 538d c63e d4e5 6b3e 0ff7 a2b7 0086 26bf
000000e0: 6932 d034 1eaa dfb6 bb38 0238 633a 1d39
000000f0: 9b43 f338 2e65 3738 73b2 1b38 a025 8039

hidden.node.bias f4 [8]
0.00044155263 0.41823298 0.49813402 -5.6487256e-06 -0.052123904 0.0002231361 0.33356068 -0.00021930365
00000000: 3180 e739 a222 d63e 6c0b ff3e 2f8a bdb6
00000010: e07f 55bd a4f9 6939 77c8 aa3e e0f4 65b9

readout_nodes.W_node f4 [1, 8]
4.027903e-05 -0.848106 -0.7982561 -2.0666846e-05 0.3494762 1.4673396 -0.68905646 0.00012121854
00000000: 47f1 2838 7a1d 59bf 835a 4cbf b75d adb7
00000010: 8bee b23e c9d1 bb3f 0166 30bf b536 fe38

readout_globals.W_node f4 [1, 8]
5.2647734e-05 -0.00026796942 0.00020777584 9.101081e-05 0.000122015146 -0.00019916288 -0.00014856114 -8.137755e-05
00000000: 13d2 5c38 3f7e 8cb9 67de 5939 0edd be38
00000010: 62e2 ff38 61d6 50b9 14c7 1bb9 3da9 aab8
