models/solubility/layers3_lr.01_biasyes_size64_wd.001_dryes_e50_sum_KCJGWG/model.latest.pt (torch_old, 109495 bytes, 38 tensors)

encoder.edge.W_edge f4 [16, 6]
-0.0838522 -0.5903291 0.16078573 -0.0026939942 0.0050301286 -0.003533634 0.043707978 -0.22429569
-0.0013117841 -0.0050136214 0.009859422 4.457519e-06 -0.0356981 -0.29681298 0.115296565 -0.008466005
0.00023854079 0.0013863972 0.00014837438 0.06253165 0.0026514383 -0.0010634243 -0.00066527055 -0.17304964
0.24426474 -0.19920595 0.006389333 0.0016222079 0.0013538891 0.17599235 0.15034032 -0.14015464
-0.29483378 0.00040625015 0.0012523114 0.12839903 0.028485395 -0.3889168 -0.039359093 0.045590807
0.0029466553 -0.0013104967 0.19077207 -0.31625667 0.0032717804 0.049184516 0.0037598812 0.0016471433
-0.0026155508 0.05214895 -0.03320471 0.0020903186 0.0039850934 0.00043840587 -0.4828178 0.58305645
-0.10513904 0.21176194 0.0010137599 -0.104554 -0.14196666 -0.0066333944 0.12978804 -0.0054160287
-0.0010271966 0.0007635935 0.40338355 -0.2924078 0.118203916 0.0076803346 0.012485517 -0.12902641
-0.27818906 0.35111535 -0.10673746 0.0020751937 -0.00025922636 -0.1096614 0.032180008 0.0565837
-0.14134867 -0.044526473 -0.0077494946 0.6033626 0.06535948 -0.08132207 0.26597765 0.12056921
0.0017846145 -0.05982083 0.4689074 0.049866803 0.57571125 -0.40988111 0.008839958 -0.009617735
00000000: b4ba abbd cf1f 17bf 04a5 243e b98d 30bb
00000010: c7d3 a43b 8a94 67bb 2307 333d c5ad 65be
00000020: 2cf0 abba 4e49 a4bb 6a89 213c cc91 9536
00000030: 2c38 12bd dff7 97be 9b20 ec3d 00b5 0abc
00000040: ce20 7a39 c5b7 b53a f294 1b39 9810 803d
00000050: c1c3 2d3b 9962 8bba 8d65 2eba ed33 31be
00000060: 8920 7a3e a5fc 4bbe 9c5d d13b 44a0 d43a
00000070: fb74 b13a 5737 343e d0f2 193e b384 0fbe
00000080: 74f4 96be f9fd d439 9924 a43a 097b 033e
00000090: 345a e93c 1a20 c7be 0037 21bd 6dbd 3a3d
000000a0: ac1c 413b f9c4 abba c159 433e 65ec a1be
000000b0: 5e6b 563b b475 493d 5768 763b f5e4 d73a
000000c0: a969 2bbb 239a 553d a901 08bd bafd 083b
000000d0: 6395 823b d7d9 e539 e533 f7be 3043 153f
000000e0: 2353 d7bd 1fd8 583e 23e0 843a 6820 d6bd
000000f0: b55f 11be f25c d9bb 28e7 043e f178 b1bb
00000100: 00a3 86ba e42b 483a 4a88 ce3e 7ab6 95be
00000110: e514 f23d 51ab fb3b 0e90 4c3c 801f 04be
00000120: cc6e 8ebe 64c5 b33e 2b99 dabd f9ff 073b
00000130: c6e8 87b9 2896 e0bd 2fcf 033d 4fc4 673d
00000140: b5bd 10be 6461 36bd 79ef fdbb f975 1a3f
00000150: 31db 853d 2f8c a6bd 392e 883e fdec f63d
00000160: bae9 e93a b006 75bd a114 f03e 2241 4c3d
00000170: d061 133f f0db d1be 79d5 103c b493 1dbc

encoder.edge.bias f4 [16]
0.11133518 0.17136157 0.04105379 0.00024104648 0.015038102 -0.00070719136 0.07534185 -0.14567985
-0.05784232 -0.079913236 -0.05847858 -0.023880975 0.027686296 0.108659625 -0.0028178883 -0.12532261
00000000: b303 e43d 6879 2f3e 0528 283d 6cc1 7c39
00000010: 5f62 763c cf62 39ba d44c 9a3d 192d 15be
00000020: 12ec 6cbd 8da9 a3bd 3c87 6fbd 09a2 c3bc
00000030: 5fce e23c f088 de3d 52ac 38bb 9254 00be

encoder.node.W_node f4 [64, 47]
-0.046215177 -0.05798051 0.08547979 4.7195077e-05 -5.1170362e-05 0.00012157845 7.4952013e-06 -0.00012410567
-0.00088728894 -0.0020115634 -0.00015316 0.0009124699 2.1278696e-05 0.0014129687 -0.0007576729 -0.00072223716
0.0010175182 -0.0005918155 -0.00081110134 0.00028733103 0.001502106 0.0021100463 -0.0008049302 -0.0020991054
0.0006197007 0.000121508994 0.0026084208 -0.00022421785 0.0010846483 0.0015417374 -0.00084157544 0.0004654186
-0.00015517371 0.0016660979 0.0015968428 -0.0016281991 0.0040444178 0.0016357285 -0.0046864483 0.002019499
0.0033491745 -0.00163425 -0.0013939762 0.0010884579 -0.00013417857 3.984929e-05 -0.0028338367 -0.00015352937
2.5914576e-05 -3.0875144e-05 8.334537e-06 -0.000103898965 0.00010250109 -0.00021286044 -0.00014772922 -0.00087510457
0.0015371988 -0.00020890772 0.00026058502 -0.0005927611 -0.0020133408 -0.0007027318 0.001406739 0.0011322761
0.00068718224 0.0008796074 0.006642901 -0.0008610707 0.00017527815 0.002656219 0.0017577655 -0.00018636996
0.0021339639 -0.00043050494 -0.0017685028 0.0027766526 -0.0012873469 0.0016382998 -0.0009978386 0.0009404804
-0.00048510445 -0.0011593534 -0.0024368186 -0.002915537 0.00049120485 -0.0017908742 -0.0001926733 -0.0015486281
0.0004398115 -0.0020192394 0.0008890188 -0.0004007652 0.00075390394 -0.0022227974 -0.049171735 -0.052897092
-0.049774215 -0.04896211 -0.0018729047 0.0026072292 0.001837403 -0.0012398128 0.0010759099 0.0011471371
0.0015301851 0.0025176622 5.4656735e-05 -0.00066891767 -0.0029660915 -0.00013689695 -3.593455e-05 0.0014132705
0.00024393002 0.00013417493 -0.0014877409 9.305039e-05 0.0006253993 0.0003180186 0.0006807717 0.0014493365
0.0009644391 -0.0007088613 0.00087842706 0.0007483567 -0.0022069488 -0.0012911421 0.0016510035 0.0013458914
-0.0018596262 -0.00073416566 0.0012605197 0.0012019391 0.0012864762 -0.0015201806 0.0014686468 -0.002473931
-0.0034650064 -0.0015918886 -0.0015738528 -0.0002701941 0.0023556917 -0.03376375 -0.049639083 -0.04973265
-0.03896667 0.0019921889 0.0003575036 -0.00095679483 0.00234089 -0.0021454392 0.0002157651 0.00030991773
0.0004773621 0.0032780117 0.0015100484 0.0006446844 -0.00038935378 -0.0019907618 0.0033523121 -0.0002671936
4.3514054e-05 0.001311793 9.48729e-05 0.0008009493 -0.003062273 -0.00047587891 0.0066078613 0.0010314019
0.003858722 -3.928687e-05 0.0012580573 0.000790387 0.00044194047 -0.0017558794 -0.002243749 -0.0014905013
-0.0008193337 -0.0014000374 0.0016913924 -0.00024464048 0.0005815148 0.0013092803 0.0005127676 -0.00086537
-0.0044116005 -0.0004787649 0.00083511614 0.0015400228 -3.334232e-05 -0.00027726838 -3.5479407e-05 0.00054667675
-0.00112614 -0.00075574225 -0.0015703985 -0.0042012176 0.0021964526 0.0010349895 0.0016508917 -0.0011543524
0.00036962965 -0.0010427863 -0.00065990246 -0.0004323293 -6.0021153e-05 0.00073190226 0.00053566566 0.0019086832
-0.0011972116 -0.00035685726 0.00019923541 -0.0009100924 -0.0018337468 -0.00045100367 0.0012428914 0.0003217111
-0.00011439667 -0.00052534003 -0.0010519696 0.0002480007 -0.001180591 -0.00040762 -0.0014868254 -0.0012959748
0.0009163792 0.0009568059 -0.00064408936 0.0013656126 0.0009284873 -0.0012283503 0.00018043064 0.0007675984
0.0002588832 0.0018861553 0.001146478 0.043031085 -0.07031851 -3.8939117e-05 -0.047246076 -4.4220702e-05
3.0698193e-05 0.008470511 -0.0002531616 0.00089752686 0.0014021359 -0.00019468562 0.0008901915 0.0015192473
3.818792e-06 0.0046841535 -0.0005092663 -0.004514656 0.0015817684 0.0016212069 0.0004005038 -0.0017085389
00000000: 204c 3dbd f97c 6dbd 0710 af3d 54f3 4538
00000010: c29f 56b8 eff7 fe38 4a7f fb36 5d22 02b9
00000020: f498 68ba 6fd4 03bb 9399 20b9 d232 6f3a
00000030: a77f b237 5d33 b93a 919e 46ba 8454 3dba
00000040: 3f5e 853a 1124 1bba 17a0 54ba eba4 9639
00000050: 50e2 c43a b448 0a3b f401 53ba 2591 09bb
00000060: 6973 223a a5d2 fe38 0af2 2a3b 051c 6bb9
00000070: c22a 8e3a 1f14 ca3a 2c9d 5cba 6d03 f439
00000080: 20b6 22b9 f860 da3a 274d d13a 4c69 d5ba
00000090: 0987 843b f165 d63a c790 99bb 9259 043b
000000a0: d37d 5b3b 5534 d6ba 14b6 b6ba 96aa 8e3a
000000b0: 49b2 0cb9 d923 2738 e4b7 39bb bafc 20b9
000000c0: 2163 d937 ef7f 01b8 90d4 0b37 55e4 d9b8
000000d0: dbf5 d638 4a33 5fb9 c3e7 1ab9 4667 65ba
000000e0: d57b c93a 3d0e 5bb9 219f 8839 8663 1bba
000000f0: 41f2 03bb 8837 38ba 5462 b83a e268 943a
00000100: 0524 343a 7495 663a b1ac d93b 7ab9 61ba
00000110: dfca 3739 f613 2e3b d364 e63a 4e6c 43b9
00000120: f9d9 0b3b 65b5 e1b9 1bcd e7ba 80f8 353b
00000130: 32bc a8ba 38bc d63a e8c9 82ba 928a 763a
00000140: 9e55 feb9 72f5 97ba 08b3 1fbb 9812 3fbb
00000150: 33c4 003a c4bb eaba 5808 4ab9 56fb caba
00000160: 8096 e639 3755 04bb 0b0d 693a cb1d d2b9
00000170: a3a1 453a 5aac 11bb 4d68 49bd 9faa 58bd
00000180: 0ce0 4bbd 7e8c 48bd 417c f5ba 0cde 2a3b
00000190: 04d5 f03a 3781 a2ba 8c05 8d3a 895b 963a
000001a0: 7e90 c83a 5dff 243b 393f 6538 4e5a 2fba
000001b0: c262 42bb ff8b 0fb9 6eb8 16b8 7d3d b93a
000001c0: 77c7 7f39 4fb1 0c39 4d00 c3ba 0c24 c338
000001d0: d6f1 233a bcbb a639 d175 323a aaf7 bd3a
000001e0: 6ad2 7c3a e0d2 39ba 3e46 663a 5e2d 443a
000001f0: 75a2 10bb 8a3b a9ba 7c66 d83a 9f68 b03a
00000200: b3be f3ba 0675 40ba 0638 a53a 628a 9d3a
00000210: fa9e a83a cc40 c7ba 9c7f c03a ad21 22bb
00000220: 2915 63bb eba6 d0ba bd49 ceba d7a8 8db9
00000230: f361 1a3b dc4b 0abd 5a52 4bbd 77b4 4bbd
00000240: 849b 1fbd 628f 023b 526f bb39 6ad1 7aba
00000250: 9e69 193b 7f9a 0cbb 013f 6239 747c a239
00000260: 7546 fa39 e9d3 563b d1ec c53a 0a00 293a
00000270: 2e22 ccb9 7177 02bb 77b2 5b3b 1e16 8cb9
00000280: dc82 3638 78f0 ab3a 80f6 c638 ccf6 513a
00000290: 6ab0 48bb 637f f9b9 c286 d83b 1b30 873a
000002a0: 9de2 7c3b f5c7 24b8 66e5 a43a f931 4f3a
000002b0: 3fb4 e739 8925 e6ba dd0b 13bb ed5c c3ba
000002c0: 8ec8 56ba 7681 b7ba b6b1 dd3a 1743 80b9
000002d0: cc70 183a 289c ab3a 406b 063a ffd9 62ba
000002e0: 308f 90bb bd02 fbb9 b2eb 5a3a 97da c93a
000002f0: 0bd9 0bb8 555e 91b9 b9cf 14b8 db4e 0f3a
00000300: fd9a 93ba 011d 46ba d4d5 cdba 5eaa 89bb
00000310: 5cf2 0f3b 7ca8 873a bc62 d83a a44d 97ba
00000320: daca c139 1aae 88ba 4efd 2cba 42aa e2b9
00000330: 39bf 7bb8 21dd 3f3a ea6b 0c3a c82c fa3a
00000340: c1eb 9cba 9218 bbb9 d9e9 5039 4493 6eba
00000350: 555a f0ba b074 ecb9 84e8 a23a 55ab a839
00000360: 3fe8 efb8 f9b6 09ba 3ee2 89ba 1706 8239
00000370: 0fbe 9aba d5b5 d5b9 95e1 c2ba b3dd a9ba
00000380: 2b39 703a 28d2 7a3a 1bd8 28ba 5bfe b23a
00000390: ba65 733a 9900 a1ba fb31 3d39 a838 493a
000003a0: b7ba 8739 df38 f73a 6b45 963a 5d41 303d
000003b0: 2703 90bd 8f52 23b8 1a85 41bd 9e79 39b8
000003c0: efc1 0038 e6c7 0a3c c6ba 84b9 0248 6b3a
000003d0: e0c7 b73a 8624 4cb9 be5b 693a 7b21 c73a
000003e0: 2c23 8036 877d 993b 4880 05ba aeef 93bb
000003f0: 5753 cf3a ad7e d43a b6fa d139 0df1 dfba

encoder.node.bias f4 [64]
0.03337296 2.2722597e-05 -0.038402107 -0.03181964 -0.00039951017 -0.082686916 -0.004678466 -4.81026e-05
-0.030164596 -0.0061799595 -0.00048560955 0.05559831 0.13154942 0.0008047485 -0.10045917 -0.009626857
0.0032919308 3.8173923e-05 0.00126351 0.00034952755 -0.0005839252 -0.0019395483 -0.00030698342 -0.006541881
-0.0028388621 -0.00014205497 0.0004825062 -0.001357842 -0.0073226276 0.0016568706 -0.023372566 0.211453
-0.00025117863 -0.0005606743 -0.0004468943 -0.013579941 0.09505802 0.009397861 -0.009819757 0.024525927
-5.7086516e-05 6.303094e-05 -0.00064332195 4.3759577e-05 -0.0018533017 -0.0028288218 0.00040308275 -0.013978092
0.19804452 0.016740762 0.00037263287 0.0007138368 0.009818515 0.00045533007 0.00012294443 -9.8592114e-05
-0.0010336715 -0.0015272307 9.330891e-05 3.360782e-05 0.04017952 0.019671466 -0.003944879 -0.0012910544
00000000: 16b2 083d 689c be37 874b 1dbd 5055 02bd
00000010: 5975 d1b9 c257 a9bd d14d 99bb c6c1 49b8
00000020: be1b f7bc 4281 cabb 6999 feb9 0ebb 633d
00000030: e4b4 063e c2f5 523a 8abd cdbd f7b9 1dbc
00000040: 6fbd 573b f01c 2038 5c9c a53a cb40 b739
00000050: 8f12 19ba 7138 feba 9ef2 a0b9 465d d6bb
00000060: 340c 3abb 97f4 14b9 e3f8 fc39 9ef9 b1ba
00000070: a7f2 efbb 5a2b d93a d377 bfbc 2387 583e
00000080: a0b0 83b9 37fa 12ba 234d eab9 677e 5ebc
00000090: c7ad c23d 7cf9 193c 0ce3 20bc 99ea c83c
000000a0: 2e70 6fb8 7a2f 8438 9ba4 28ba 7d8a 3738
000000b0: 7cea f2ba c163 39bb da54 d339 5e04 65bc
000000c0: 2fcc 4a3e ec23 893c f05d c339 c720 3b3a
000000d0: d6dd 203c 5eb9 ee39 a5ea 0039 3dc3 ceb8
000000e0: 437c 87ba 5c2d c8ba d7ae c338 1ff6 0c38
000000f0: 4893 243d 0e26 a13c 0b44 81bb 9938 a9ba

encoder.global.W_node f4 [8, 64]
0.00067367166 2.525638e-05 -0.007128086 0.0018853974 -0.0023450786 0.00020758955 -0.0022300163 5.07217e-05
0.0010853708 0.00071157847 -0.00062568067 -0.2716073 0.30165467 0.0010044404 -7.1747316e-05 -5.1727664e-05
-0.21933728 1.0875416e-05 0.00036364357 0.00070327753 0.00015221325 -0.03259516 -0.0001662919 -0.00019767614
0.010719293 0.00027313607 0.004869428 0.0019587341 0.0006057236 0.00018437712 -0.0001008852 0.33875117
0.0005023315 -0.00019781436 -3.7183094e-05 0.00038807347 -0.008820679 -0.42508954 0.0023090881 0.0045700236
0.0003980375 -0.00038454242 -0.001973719 -0.00035283327 0.004020174 -0.0010283515 -0.008581301 0.0048611057
-0.33509728 0.04516198 0.0014146228 0.0004166395 -0.015798919 0.00028288565 0.00095942663 0.00046186816
0.0024367403 0.0017707486 0.0023349647 0.0009223269 -0.041325748 -0.0039921626 -8.98275e-05 -0.00047917143
-0.00033645783 0.00083446933 -0.0038010415 -0.0013915821 0.0021945355 -0.00018858316 -0.0025347492 -0.0019593914
0.0013777287 -0.0016882027 -0.0006718826 0.0005451138 -0.0012253034 0.000818452 -0.0031858124 0.004416734
5.986337e-05 0.0018629014 0.00067741086 -0.0023279223 -0.0010320931 -7.230598e-05 0.00057457737 0.0007668443
-0.00033381447 -0.0026660096 0.0011165295 -0.0019483782 0.0022657474 -7.506654e-05 -0.000120248325 0.00089980173
-0.0021101108 -4.431184e-05 -0.0004024979 -0.00288452 -0.0073323366 0.00012834508 -0.00026757157 0.0007753566
-0.00041164667 0.0014993938 -9.188844e-05 0.001396194 -0.0037877539 6.653715e-05 0.0015349238 -3.1433297e-05
-0.0032077427 7.273237e-05 0.002733417 -0.0018105694 -0.007986438 -0.00080864556 0.0013093678 0.0012122475
-0.0004055539 -0.002072001 -0.001378121 -0.00032598723 0.0012806442 -0.0445899 -0.0018312904 0.0013907643
0.0007465184 -0.0001557378 -0.0011998558 0.0022513105 0.0017925642 -0.0005836607 -0.00023119198 -0.0014644897
0.0018726874 0.0011910036 0.0018226675 0.00054469786 0.0011115584 -0.0017529716 0.0007489788 -0.0004050969
-0.00055957027 0.00043769687 0.00031361 -0.0006856071 2.6938691e-05 0.0011133656 0.0002228606 -0.000646752
-4.4324093e-05 0.00020674743 0.00082168484 -0.0014758825 -0.0043769265 0.0008162397 0.0005800215 -0.00031847047
-0.000724859 0.0019308898 -0.0004161077 0.00037064386 0.00021586659 0.0009611588 -0.00090994715 0.000725833
0.0006562228 0.0008847431 -0.0025649497 -0.00037534986 -0.000748923 0.001028148 -0.0024653878 -0.0007928758
0.0011316304 0.00046052123 8.337376e-05 -0.0005786904 -0.00040151514 -0.0009363128 -0.0012237936 0.0018352356
-0.0002669123 -0.00014555361 0.000752517 -0.0014677494 0.0014139598 -0.00091664516 0.0002091215 -0.00018833237
0.0005011232 -1.1420788e-05 0.006820936 0.0020720563 -0.0017715544 0.00020285173 -0.003807937 -5.570421e-05
0.0014441374 -0.00020180835 -0.0012844537 -0.109659344 0.004760052 0.00041239106 -2.30382e-06 0.00067234546
-0.06526342 -0.00035224805 -0.00032886377 0.0006013343 -0.0029174658 -0.000823395 0.0004661116 0.0003682169
-0.005355465 0.0009912816 0.004306837 0.00036484044 -0.00074877276 0.0015609723 -0.00022257076 0.27559048
-0.0023531732 0.00062162767 0.00020569822 -0.00086979405 -0.000839737 -0.2892256 -0.0012495989 0.003124085
0.00050078286 2.7278318e-05 -0.0038193369 8.383634e-05 0.0015590702 -0.0005209905 -0.009556239 0.0042660013
-0.22803853 0.0008074603 0.0011404861 -0.0005553027 -0.0011560542 -0.00031817687 -0.0016128749 0.00042227178
-0.00024244373 -0.00033576964 -0.0017803939 0.00052730023 0.00040321067 0.025822328 -0.0008091953 0.0009832983
00000000: 5799 303a aadd d337 b892 e9bb 701f f73a
00000010: e4af 19bb 65ac 5939 7725 12bb 03be 5438
00000020: 0043 8e3a 3989 3a3a b804 24ba 1d10 8bbe
00000030: 7b72 9a3e 6da7 833a 0c77 96b8 28f6 58b8
00000040: f499 60be 8e75 3637 6aa7 be39 285c 383a
00000050: 6f9b 1f39 8182 05bd a45e 2eb9 4947 4fb9
00000060: f99f 2f3c b433 8f39 b98f 9f3b 1b5e 003b
00000070: 6cc9 1e3a 5b55 4139 5492 d3b8 cb70 ad3e
00000080: e5ae 033a 636c 4fb9 0bf5 1bb8 5776 cb39
00000090: 9c84 10bc 56a5 d9be 1254 173b 23c0 953b
000000a0: b0af d039 699c c9b9 8359 01bb 7bfc b8b9
000000b0: aabb 833b c0c9 86ba 9698 0cbc e949 9f3b
000000c0: df91 abbe c5fb 383d dd6a b93a 6870 da39
000000d0: bc6c 81bc 4550 9439 0882 7b3a e526 f239
000000e0: b8b1 1f3b 7718 e83a 3506 193b 4fc8 713a
000000f0: 3045 29bd b0d0 82bb c661 bcb8 4d39 fbb9
00000100: 9b66 b0b9 4ac0 5a3a e51a 79bb bf65 b6ba
00000110: 32d2 0f3b 68be 45b9 091e 26bb 2269 00bb
00000120: e794 b43a af46 ddba 4721 30ba f8e5 0e3a
00000130: 5c9a a0ba 628d 563a 10c9 50bb 40ba 903b
00000140: ce15 7b38 992c f43a 4694 313a 0e90 18bb
00000150: 4c47 87ba faa2 97b8 3c9f 163a 0d06 493a
00000160: d203 afb9 38b8 2ebb 8358 923a b960 ffba
00000170: ef7c 143b 0b6d 9db8 d42d fcb8 ace0 6b3a
00000180: c949 0abb 7adb 39b8 5b06 d3b9 370a 3dbb
00000190: 1944 f0bb 5f94 0639 d948 8cb9 4d41 4b3a
000001a0: 48d2 d7b9 4f87 c43a 3bb4 c0b8 7f00 b73a
000001b0: f73b 78bb dc89 8b38 7f2f c93a 3fd7 03b8
000001c0: fe38 52bb e587 9838 2123 333b a150 edba
000001d0: 8dd9 02bc 49fb 53ba 189f ab3a 47e4 9e3a
000001e0: 86a0 d4b9 69ca 07bb 11a2 b4ba 44e9 aab9
000001f0: 4adb a73a e6a3 36bd e907 f0ba 4e4a b63a
00000200: 00b2 433a 8c4d 23b9 7b44 9dba b98a 133b
00000210: 79f4 ea3a ce00 19ba 206c 72b9 1ff4 bfba
00000220: f674 f53a 731b 9c3a 93e6 ee3a 0eca 0e3a
00000230: b6b1 913a f7c3 e5ba 1e57 443a 2f63 d4b9
00000240: 20b0 12ba ae7a e539 066c a439 50ba 33ba
00000250: 66fa e137 5aee 913a b0af 6939 cb8a 29ba
00000260: a2e8 39b8 57ca 5839 5666 573a 6672 c1ba
00000270: 526c 8fbb ebf8 553a 950c 183a 62f8 a6b9
00000280: 7704 3eba e915 fd3a 0829 dab9 fa52 c239
00000290: 3f5a 6239 46f6 7b3a 8589 6eba d445 3e3a
000002a0: 5e06 2c3a 1bee 673a b718 28bb 9bca c4b9
000002b0: 5f53 44ba ecc2 863a 5892 21bb ffd8 4fba
000002c0: 3753 943a 1d72 f139 f2d8 ae38 41b3 17ba
000002d0: 7382 d2b9 e372 75ba b367 a0ba 4a8c f03a
000002e0: 5df0 8bb9 c09f 18b9 9044 453a 7f61 c0ba
000002f0: 9e54 b93a 044b 70ba a047 5b39 167b 45b9
00000300: cf5d 033a e99b 3fb7 2982 df3b 56cb 073b
00000310: 8033 e8ba 99b4 5439 958e 79bb f1a3 69b8
00000320: 3649 bd3a 849c 53b9 1d5b a8ba 1495 e0bd
00000330: 36fa 9b3b 3136 d839 549b 1ab6 5740 303a
00000340: d4a8 85bd efad b8b9 596b acb9 dda2 1d3a
00000350: f432 3fbb 1ad9 57ba 7160 f439 3c0d c139
00000360: e67c afbb e4ed 813a 5e20 8d3b 0e48 bf39
00000370: 4a49 44ba 8a99 cc3a e261 69b9 321a 8d3e
00000380: b237 1abb baf4 223a b2b0 5739 e402 64ba
00000390: cc21 5cba 6115 94be 95c9 a3ba 73bd 4c3b
000003a0: f846 033a bed3 e437 d74d 7abb 4bd1 af38
000003b0: b759 cc3a 1593 08ba c591 1cbc d0c9 8b3b
000003c0: ef82 69be beab 533a 5d7c 953a bc91 11ba
000003d0: be86 97ba fad0 a6b9 1a67 d3ba 5c64 dd39
000003e0: 7e38 7eb9 3d0a b0b9 1b5c e9ba 853a 0a3a
000003f0: 0566 d339 5989 d33c 2d20 54ba 04e2 803a

encoder.global.W_edges f4 [8, 16]
0.19931014 0.2587863 0.24514994 -0.0018985815 0.0140685905 -0.000500366 0.16520447 0.021024305
-2.896578e-05 -0.5808045 -0.02073252 0.17698433 -0.44727454 0.07723093 -0.0027725536 0.32341427
-0.04518199 -0.008469793 -0.028084183 -0.00062444166 0.007562344 0.0005855522 -0.022278456 -0.00015759261
0.00022219232 0.0063666473 -0.0016612737 -0.004128273 -0.0044542514 -0.035700984 0.005835719 0.005521873
-0.002027618 0.0020228424 -0.0019424047 0.0009243866 0.00045064196 0.002831877 0.0005220708 -0.00041399908
0.0014085039 0.00070883665 -0.00049165415 0.0003149618 -0.0018006972 -0.00035898047 0.0014190628 -0.00091972953
0.335337 0.2446558 0.1680776 -0.0026386157 0.19441399 0.0006923693 0.06068107 0.010011585
0.00028005708 -0.027887672 -0.00056739995 0.23620345 -0.020447418 0.107721694 0.106645 0.2739621
0.0028499386 -0.0017844498 0.0034810915 -0.0040833144 -0.02172332 0.0003429545 -0.08369171 0.015164064
1.2909132e-05 0.29167104 0.032437123 0.0024202645 0.11825284 -0.17539863 -0.0036612304 -0.26334548
-0.33419475 -0.11888974 -0.20424365 -0.01613034 0.18222205 0.010481729 -0.370386 0.0010314217
-0.00028922316 0.23034395 -0.011371775 0.041370597 0.022459961 0.31750116 -0.01150946 0.07119814
-8.764128e-05 0.0002013806 -5.929312e-05 7.973574e-07 0.00013009031 -1.4177496e-05 -0.00024470664 -0.0003628833
0.000806002 -0.00031878173 5.505363e-05 3.9636666e-06 -0.00014953184 -0.00021931162 0.00012496715 0.000116334166
-0.25081432 -0.02404261 0.003686486 4.4552256e-05 0.12989032 0.18168235 -0.104165055 -0.0025642652
-0.00012127916 -0.14396615 -0.019954434 -0.15411073 -0.21006596 0.4759124 -0.34469607 0.027388679
00000000: f517 4c3e a37f 843e 9608 7b3e d3d9 f8ba
00000010: f27f 663c fe2a 03ba 5c2b 293e 2a3b ac3c
00000020: 8afb f2b7 9baf 14bf 3fd7 a9bc 613b 353e
00000030: 2b01 e5be 402b 9e3d bbb3 35bb 8e96 a53e
00000040: c010 39bd e3c4 0abc cd10 e6bc 92b1 23ba
00000050: 8acd f73b be7f 193a 4f81 b6bc 723f 25b9
00000060: 4cfc 6839 4f9f d03b 18bf d9ba 7746 87bb
00000070: f8f4 91bb 323b 12bd 8f39 bf3b d4f0 b43b
00000080: c9e1 04bb aa91 043b 4998 feba 8952 723a
00000090: 2444 ec39 0397 393b 94db 083a 040e d9b9
000000a0: 8c9d b83a 39d1 393a 5ae2 00ba 7521 a539
000000b0: 5f05 ecba 8b35 bcb9 d9ff b93a 011a 71ba
000000c0: 4bb1 ab3e 0d87 7a3e 891c 2c3e a0ec 2cbb
000000d0: 7614 473e 1e80 353a b78c 783d a207 243c
000000e0: a0d4 9239 b074 e4bc 91bd 14ba 51df 713e
000000f0: 5881 a7bc 319d dc3d b268 da3d c344 8c3e
00000100: 09c6 3a3b 33e4 e9ba 0623 643b 53cd 85bb
00000110: 1bf5 b1bc 93ce b339 8f66 abbd b272 783c
00000120: 4d94 5837 e855 953e cadc 043d 4d9d 1e3b
00000130: 8c2e f23d b39b 33be 41f1 6fbb 38d5 86be
00000140: 931b abbe 777c f3bd 3f25 51be c623 84bc
00000150: 6b98 3a3e 8fbb 2b3c 3ca3 bdbe c530 873a
00000160: e0a2 97b9 49df 6b3e ae50 3abc 3774 293d
00000170: f4fd b73c 838f a23e 2d92 3cbc 55d0 913d
00000180: 0ecc b7b8 b129 5339 81b1 78b8 fc09 5635
00000190: da68 0839 e2db 6db7 f84b 80b9 5f41 beb9
000001a0: e149 533a 2922 a7b9 63e9 6638 a3ff 8436
000001b0: a6cb 1cb9 04f7 65b9 9d09 0339 6ef8 f338
000001c0: bc6a 80be 02f5 c4bc f998 713b 9fdd 3a38
000001d0: f801 053e f00a 3a3e 7d54 d5bd 3b0d 28bb
000001e0: 4157 feb8 dd6b 13be 7b77 a3bc 34cf 1dbe
000001f0: 881b 57be caaa f33e 017c b0be 395e e03c

encoder.global.bias f4 [8]
-0.682466 0.0018861439 0.00081851956 -0.1464958 0.390079 -0.004175404 0.0015995355 0.63241816
00000000: 17b6 2ebf 7d38 f73a eb91 563a ff02 16be
00000010: 6fb8 c73e d4d1 88bb 81a7 d13a 28e6 213f

hidden.hidden_0.edge.W_edge f4 [16, 16]
-3.215134e-05 -1.1943637e-05 -0.20603855 1.8432196e-05 -0.18478976 0.0931842 -0.0048322906 6.360309e-05
-0.00015105942 -0.00022310796 -0.09830325 7.09807e-05 -0.00010145359 -2.6232576e-05 0.06940756 0.00010366148
-7.15414e-05 -0.0044730357 0.0112116905 -2.3886167e-05 -2.408267e-06 3.9412647e-05 -0.07409626 -3.291964e-05
-0.00017288214 4.298722e-05 0.043898188 -0.00028591687 -0.013879286 -0.062443543 0.108321466 0.022449313
-0.018624527 0.003701713 -0.026364787 -0.00072094094 0.015507122 0.0039942707 0.0041406527 0.23578338
0.0011714649 -0.040722046 -0.12165489 0.2212263 -0.005540426 -0.016459009 0.0032332344 0.015856897
-0.0563037 -0.062444612 -2.5892956e-05 3.3653436e-05 -0.05075284 -5.726123e-06 -0.0037079856 -0.00013863292
0.00019981613 -0.04699481 -0.0001506918 0.00022014236 -0.002458659 -0.04174827 -0.17953596 -0.13756777
0.00062361296 -0.00032002793 -0.00028289662 0.00073079526 -0.0003002985 1.5072984e-05 -0.00032240324 0.00062715326
-7.9617836e-05 0.00012199322 0.00016181263 -0.00063814863 -0.00042696152 0.0005211697 -0.0003434045 0.0009246167
-0.0022934452 2.5909681e-05 -0.11881662 -2.7167327e-05 -4.3221794e-06 0.13175322 -0.11666388 -0.00037137856
-0.00016724187 0.0045902184 -0.025174472 0.00011237695 0.0009985134 -0.11037497 0.011974362 -0.00059631804
0.056884732 -0.00010667612 -3.190568e-06 0.0001676028 8.965852e-05 -4.8444206e-05 -0.0005413191 -9.893585e-05
-0.0017955989 -0.00062918244 -0.016628748 0.0009699206 -0.0001558448 -0.00024149271 0.008966398 0.0014232263
-0.21210583 -0.12907529 -0.027322704 -0.0019704835 -0.23502882 0.0012218707 -0.033767626 -0.03341101
0.00015937201 -0.29708353 0.095665194 -0.10593403 -0.00609116 -0.07049387 -0.21142367 0.22905801
-0.23197456 -0.11814006 -8.339358e-06 -2.7395504e-06 -2.927049e-05 -2.1825736e-05 -0.03062267 -0.07806469
-2.1194244e-05 -0.10418438 0.08011209 4.333497e-05 -0.17584208 -5.389523e-05 -0.14225774 -0.12781364
-0.032386124 -0.010309958 -0.0047720196 -0.09349407 -0.004136802 -0.014398722 -0.07609613 -0.016844967
0.00011908795 -0.014316476 -0.0039757425 -0.04671239 -0.0037558938 -0.022304315 -0.008819725 -0.021259153
-0.102905184 -2.395135e-05 -0.006566727 2.0032183e-05 -0.00020016982 -5.2629975e-06 -0.19792604 1.9936629e-06
-8.8028566e-05 -0.0002072513 0.0037458972 5.2793835e-05 2.9799541e-05 -0.031770807 -1.1610167e-05 -0.09542005
-0.09350603 0.007211642 -0.09556398 -0.0003424662 0.08537097 0.012548477 0.12829418 0.19290526
0.00030020613 -0.29062206 -0.11041698 0.33743238 -0.0058984086 -0.2148383 0.14476235 0.20686899
-0.00029729184 -0.007521497 -0.030728016 -0.0022344075 -0.00062952354 -0.00017679649 -0.00015950634 -0.00085814565
0.00019606006 2.3428389e-05 7.846224e-06 -0.00443827 8.508753e-07 0.0010445518 0.058287367 -0.0031194414
-4.518233e-05 -9.1070586e-05 -3.271537e-05 -0.0001364968 -0.068968266 -0.00022406277 -0.13779841 4.035876e-05
6.4243955e-06 -0.051897526 -0.16394027 2.6999518e-05 0.020251198 -0.09478236 -0.061243057 -4.680562e-05
-0.09661549 -0.012049819 -0.011624769 0.0025868295 -0.0037422106 -0.015712053 -0.027376056 0.04586159
0.0005894971 0.24685067 -0.006621669 0.07746975 0.14379637 -0.18457782 0.0067603914 -0.015033381
-0.1436796 -0.042634744 -0.005642889 0.0010075647 -0.019688983 0.177238 -0.0013466377 -0.011044656
-3.450722e-05 -0.22383069 0.00022149671 -0.20900626 -0.008134285 0.2084029 -0.019635446 0.22933762
00000000: 3dda 06b8 8861 48b7 c5fb 52be d79e 9a37
00000010: 8739 3dbe 5cd7 be3d 3158 9ebb a662 8538
00000020: b465 1eb9 16f2 69b9 3753 c9bd 79db 9438
00000030: 7bc3 d4b8 070e dcb7 8d25 8e3d d564 d938
00000040: 7f08 96b8 8b92 92bb 3db1 373c 275f c8b7
00000050: b69d 21b6 024f 2538 c8bf 97bd 3213 0ab8
00000060: b247 35b9 2d4d 3438 96ce 333d 1de7 95b9
00000070: f265 63bc cdc4 7fbd a5d7 dd3d 9fe7 b73c
00000080: 7792 98bc 7098 723b f7fa d7bc 87fd 3cba
00000090: 9511 7e3c 5fe2 823b 50ae 873b 3371 713e
000000a0: d78b 993a 29cc 26bd 3326 f9bd 2689 623e
000000b0: 768c b5bb 0bd5 86bc ace4 533b 53e6 813c
000000c0: b59e 66bd ecc5 7fbd b334 d9b7 1a27 0d38
000000d0: 36e2 4fbd 0623 c0b6 ad01 73bb fe5d 11b9
000000e0: bc85 5139 a17d 40bd 0603 1eb9 04d6 6639
000000f0: 7421 21bb 3c00 2bbd 46d8 37be 91de 0cbe
00000100: f579 233a 6cc9 a7b9 be51 94b9 d792 3f3a
00000110: 6271 9db9 f9e1 7c37 3b08 a9b9 8b67 243a
00000120: 80f8 a6b8 9cd6 ff38 3fac 2939 6e49 27ba
00000130: ced9 dfb9 1b9f 083a f90a b4b9 fa61 723a
00000140: a04d 16bb 9e58 d937 2156 f3bd 64e5 e3b7
00000150: 3d07 91b6 51ea 063e 79ed eebd 96b5 c2b9
00000160: a65d 2fb9 8b69 963b b23a cebc eaab eb38
00000170: 8de0 823a 460c e2bd 1d30 443c 3a52 1cba
00000180: f7ff 683d 4eb7 dfb8 8a1d 56b6 89be 2f39
00000190: 0d07 bc38 9230 4bb8 4fe7 0dba c87b cfb8
000001a0: 4d5a ebba b8ef 24ba 0339 88bc 4542 7e3a
000001b0: 456a 23b9 3539 7db9 cde7 123c 8d8b ba3a
000001c0: 4532 59be 502c 04be ddd3 dfbc 3a23 01bb
000001d0: 65ab 70be 2d27 a03a ec4f 0abd fcd9 08bd
000001e0: 191d 2739 551b 98be 1dec c33d f1f3 d8bd
000001f0: 5a98 c7bb 175f 90bd 727f 58be 2f8e 6a3e
00000200: bd8a 6dbe 6af3 f1bd 45e9 0bb7 1ed9 37b6
00000210: e689 f5b7 6916 b7b7 65dc fabc 61e0 9fbd
00000220: 4bca b1b7 9f5e d5bd cf11 a43d 92c2 3538
00000230: f20f 34be 900d 62b8 03ac 11be 94e1 02be
00000240: 50a7 04bd 19eb 28bc 9a5e 9cbb d279 bfbd
00000250: 038e 87bb 9ee8 6bbc 4ad8 9bbd 75fe 89bc
00000260: dbbe f938 a78f 6abc f246 82bb 7e55 3fbd
00000270: 7125 76bb 8ab7 b6bc 9c80 10bc ad27 aebc
00000280: f4bf d2bd 22eb c8b7 b32d d7bb c90a a837
00000290: ade4 51b9 ce98 b0b6 20ad 4abe deca 0536
000002a0: fa9b b8b8 9951 59b9 ba7d 753b f36e 5d38
000002b0: 07fa f937 1b22 02bd 4ac9 42b7 966b c3bd
000002c0: 1780 bfbd a34f ec3b 0cb7 c3bd 098d b3b9
000002d0: fad6 ae3d 2198 4d3c 8d5f 033e f588 453e
000002e0: fc64 9d39 6acc 94be 4c22 e2bd f0c3 ac3e
000002f0: 7047 c1bb 92fe 5bbe 953c 143e 77d5 533e
00000300: d6dd 9bb9 e476 f6bb 52b9 fbbc 236f 12bb
00000310: 9c06 25ba 7262 39b9 2841 27b9 2ef5 60ba
00000320: 7995 4d39 1588 c437 47a3 0337 e86e 91bb
00000330: b567 6435 58e9 883a bcbe 6e3d 8b6f 4cbb
00000340: 2882 3db8 26fd beb8 dc37 09b8 9520 0fb9
00000350: 3c3f 8dbd 64f2 6ab9 071b 0dbe e346 2938
00000360: 2391 d736 8092 54bd f5df 27be 067d e237
00000370: d7e5 a53c 411d c2bd 00da 7abd 2751 44b8
00000380: 58de c5bd 9b6c 45bc d175 3ebc cc87 293b
00000390: e03f 75bb 90b6 80bc c043 e0bc 5dd9 3b3d
000003a0: 7b88 1a3a 6cc6 7c3e 96fa d8bb 76a8 9e3d
000003b0: 5b3f 133e f801 3dbe 4686 dd3b 924e 76bc
000003c0: bf20 13be c5a1 2ebd fce7 b8bb 4310 843a
000003d0: ca4a a1bc e17d 353e aa81 b0ba a5f4 34bc
000003e0: d8bb 10b8 df33 65be 9241 6839 bd05 56be
000003f0: aa45 05bc 9267 553e 84da a0bc 7bd7 6a3e

hidden.hidden_0.edge.W_sender f4 [16, 64]
-0.00096116925 -0.07767991 7.599565e-05 0.0018410744 -0.00031997956 -4.209773e-06 8.211317e-05 -0.00016100923
-0.004252944 -1.9342955e-05 2.8595816e-05 0.00089619943 -0.058485925 0.0006004445 -0.017841974 -5.267784e-05
0.0011551558 -5.0017015e-06 -0.0007136694 0.0009863639 4.5380773e-05 -0.00021145355 -0.00042715375 3.4614943e-05
0.00032556953 -0.00031438138 -0.00033628487 0.000105036124 0.00010286088 -0.002789187 1.5023807e-05 5.0895822e-05
-5.099093e-05 -4.0053357e-05 5.364783e-05 -0.0020226242 7.16896e-05 -0.00037372546 0.0018891009 4.916857e-05
-9.317038e-05 -0.09311561 -0.000646214 -3.3558576e-05 0.0002940487 -0.0003624848 0.0007892301 0.0007260815
0.00038808148 3.0199411e-05 -0.00043216758 -2.8975843e-05 -2.5868709e-05 -0.024624348 0.0009317231 -0.0006144438
-0.018869458 0.000112896836 -0.00025953643 -9.580835e-05 -0.00028370548 -0.00039313443 -0.0008819408 0.000794581
-0.0005334008 -0.006759265 -1.0975728e-05 -0.0019336081 -0.0009289412 -0.09830747 -0.001861991 2.5570256e-05
1.20421e-05 -6.1361084e-06 -0.0017309011 0.0005075237 -4.4829453e-06 -0.0022435086 1.7454464e-06 0.00021464014
6.351502e-05 -0.015011242 -0.0018178815 -0.00038755446 2.2730376e-06 -0.0019319492 -0.0016993678 -2.6303555e-08
-0.0002985252 -0.0003151231 0.001813115 0.00013664665 -7.836621e-05 0.0025806932 -0.06453422 0.002594728
-9.841358e-06 -0.075277306 -5.8894566e-05 -0.0013233852 -2.0995898e-05 0.0014688177 -0.00066777767 -0.009116007
0.0001714256 -0.03248145 -0.0010386392 -7.5200405e-05 -0.0008926183 -0.0027732807 0.0005701645 0.0010621914
-0.00043777807 -0.014483428 4.9548635e-06 6.829268e-05 -9.331602e-05 -1.8617517e-05 0.00018397385 0.0021393455
3.556415e-05 0.00040769266 -0.0030062625 -0.00020254786 -0.0013058516 0.00010983151 0.00031139445 0.0017604157
-0.0032323368 -0.00011307792 -0.001191557 -0.0014346229 0.00043146472 0.00068127137 -0.0017972031 0.00013718118
-0.002908968 0.0008143531 -0.00041302186 0.23475178 -0.05110004 -0.0004111132 -0.00031488793 -0.0009822354
0.43304706 -0.00021296814 -0.0017160242 -0.0015854171 0.00010204914 0.005244506 -0.0013469908 0.0003848085
0.00083135825 -0.0023332648 0.0002593412 -0.00030045648 0.0001372757 -0.0028295163 -0.00094382075 0.014689471
0.0003470196 -0.0017016128 3.5025148e-06 0.0007580822 -0.08012836 0.0007867275 -0.0016788743 -0.05286599
-0.0005358441 -0.00037431865 -0.0005842298 -0.00021615876 0.001192132 -0.001343846 0.0007466325 0.003292422
0.46488777 -0.26615936 -0.0011377922 0.0013051343 -0.059844825 0.00042233252 0.00087437587 0.00080089754
0.0032270204 -0.003912444 -0.001112448 0.0014883047 0.016457006 -0.07147515 -0.00043276002 -0.0018517394
0.00014856437 1.7506485e-05 0.0010329218 0.0005751745 0.0006963598 -2.078585e-06 0.0016837281 -0.0001209713
-0.029254943 4.774214e-06 9.0124996e-07 -0.00043503076 -8.338307e-06 -0.00314851 -0.06850534 4.5860215e-05
-0.00025378287 2.7741351e-05 0.00030230515 0.000265853 -1.909106e-05 -0.00032334757 -0.00020288661 0.000105611434
8.724621e-05 0.0004884866 0.0011793205 -3.5416037e-05 0.00016395791 -0.0007581045 -9.770251e-06 0.0023644452
3.452421e-05 -3.1949523e-05 -1.5609212e-05 -0.00045891537 -0.0071678273 -0.00069330045 -0.00077530276 -4.1775187e-05
-5.794639e-05 -0.005525623 0.00033849114 5.4827327e-05 -0.0004886857 -0.00044339223 -0.0011852346 7.9426994e-05
-0.0003763032 -0.021150827 0.00030086082 -0.10443334 -0.002350772 -0.06679773 0.0011793844 -0.0011174537
1.0801214e-06 -0.000229621 -0.0002128754 9.597643e-05 -0.00014413604 -0.04782256 -0.0024061766 0.0014797089
00000000: faf6 7bba a516 9fbd db5f 9f38 3550 f13a
00000010: eec2 a7b9 ad41 8db6 2c34 ac38 96d4 28b9
00000020: 485c 8bbb ae42 a2b7 0ce1 ef37 edee 6a3a
00000030: f08e 6fbd 2667 1d3a 5529 92bc 66f2 5cb8
00000040: 9968 973a 4ad4 a7b6 8b15 3bba e148 813a
00000050: 3c57 3e38 a1b9 5db9 9bf3 dfb9 832f 1138
00000060: 34b1 aa39 8ed3 a4b9 644f b0b9 d746 dc38
00000070: 04b7 d738 cbca 36bb c20e 7c37 f978 5538
00000080: 18df 55b8 f7fe 27b8 eb03 6138 018e 04bb
00000090: 1058 9638 95f0 c3b9 b59b f73a 5a3a 4e38
000000a0: 7864 c3b8 66b3 bebd b066 29ba 3fc1 0cb8
000000b0: 8c2a 9a39 e30b beb9 56e4 4e3a 8156 3e3a
000000c0: 6a77 cb39 be54 fd37 8d94 e2b9 2611 f3b7
000000d0: a100 d9b7 00b9 c9bc e13e 743a a012 21ba
000000e0: 1f94 9abc 07c3 ec38 6412 88b9 b7ec c8b8
000000f0: 4ebe 94b9 9c1d ceb9 0c32 67ba 6e4b 503a
00000100: ecd3 0bba d37c ddbb 6524 38b7 1f71 fdba
00000110: 3084 73ba 6d55 c9bd 0d0e f4ba b57f d637
00000120: 6d08 4a37 c5e4 cdb6 67df e2ba 570b 053a
00000130: 356c 96b6 d407 13bb 1545 ea35 0611 6139
00000140: 5e33 8538 b6f1 75bc fb45 eeba ae30 cbb9
00000150: 7d8a 1836 7539 fdba 52bd deba 21f2 e1b2
00000160: 6083 9cb9 1b37 a5b9 0ba6 ed3a ce48 0f39
00000170: 8a58 a4b8 d920 293b 842a 84bd 500c 2a3b
00000180: 501c 25b7 fd2a 9abd 8f05 77b8 7075 adba
00000190: 5920 b0b7 5885 c03a cd0d 2fba 4e5b 15bc
000001a0: b6c0 3339 450b 05bd f322 88ba e9b4 9db8
000001b0: 9afe 69ba eebf 35bb 1877 153a 3b39 8b3a
000001c0: 9485 e5b9 e64b 6dbc f441 a636 5a38 8f38
000001d0: a8b2 c3b8 d02c 9cb7 1be9 4039 4334 0c3b
000001e0: b72a 1538 95bf d539 b704 45bb 0763 54b9
000001f0: 1c29 abba 5855 e638 a842 a339 c0bd e63a
00000200: 9dd5 53bb 3f24 edb8 052e 9cba f509 bcba
00000210: 3736 e239 5997 323a 2190 ebba 4bd8 0f39
00000220: 62a4 3ebb 507a 553a db8a d8b9 c562 703e
00000230: 474e 51bd ae8a d7b9 8b17 a5b9 5abe 80ba
00000240: 58b8 dd3e 3350 5fb9 38ec e0ba c5cd cfba
00000250: 3703 d638 1bda ab3b 838d b0ba 1fc0 c939
00000260: 82ef 593a b0e9 18bb 30f8 8739 9686 9db9
00000270: aaf1 0f39 686f 39bb bd6a 77ba 1bac 703c
00000280: 2ff0 b539 a708 dfba bf0c 6b36 09ba 463a
00000290: 561a a4bd 643c 4e3a ac0d dcba 028a 58bd
000002a0: e477 0cba 3340 c4b9 0027 19ba ada8 62b9
000002b0: 5041 9c3a fd23 b0ba a9b9 433a adc5 573b
000002c0: c505 ee3e 0a46 88be f921 95ba 0a11 ab3a
000002d0: d91f 75bd 836c dd39 5f36 653a 53f3 513a
000002e0: 6b7c 533b f633 80bb 90cf 91ba 3813 c33a
000002f0: d8d0 863c 9061 92bd 11e4 e2b9 10b6 f2ba
00000300: f2c7 1b39 e4da 9237 1b63 873a 4fc7 163a
00000310: ea8b 363a d27d 0bb6 8ab0 dc3a f9b1 fdb8
00000320: 10a8 efbc 3032 a036 6ded 7135 d714 e4b9
00000330: c2e4 0bb7 3b57 4ebb 874c 8cbd 085a 4038
00000340: 290e 85b9 19b6 e837 b67e 9e39 3062 8b39
00000350: bd25 a0b7 fa86 a9b9 f6bd 54b9 b57b dd38
00000360: f4f7 b638 c80d 003a 6e93 9a3a ae8b 14b8
00000370: 1eec 2b39 88bb 46ba e9ea 23b7 cff4 1a3b
00000380: 17ce 1038 8a01 06b8 87f0 82b7 949a f0b9
00000390: 18e0 eabb 9bbe 35ba b03d 4bba c437 2fb8
000003a0: 760b 73b8 4910 b5bb 8377 b139 65f6 6538
000003b0: 241b 00ba 1977 e8b9 e059 9bba 0b92 a638
000003c0: 8f4a c5b9 8044 adbc dbbc 9d39 26e1 d5bd
000003d0: 690f 1abb 40cd 88bd 9395 9a3a 8677 92ba
000003e0: b0f8 9035 6bc6 70b9 4e37 5fb9 f446 c938
000003f0: 3923 17b9 97e1 43bd f2b0 1dbb cbf2 c13a

hidden.hidden_0.edge.bias f4 [16]
9.0098877e-07 -0.05176661 -0.0146858515 0.043213926 -0.00062689325 0.09314816 -0.22090925 0.17324802
0.05742352 -0.01492721 -0.111747876 -0.21160184 -0.00034587874 0.09495975 -0.039128315 -0.03470765
00000000: 7adb 7135 3a09 54bd ed9c 70bc 1601 313d
00000010: 1856 24ba 76c4 be3d 0936 62be ee67 313e
00000020: ed34 6b3d 4291 74bc 12dc e4bd 27ae 58be
00000030: 0f57 b5b9 427a c23d 0345 20bd 9c29 0ebd

hidden.hidden_0.node.W_node f4 [64, 64]
-9.3598e-05 -0.00015070279 0.0001449147 -0.00020264396 0.0021352256 -0.000281909 -0.00043532433 -2.7357732e-05
-0.00011284007 0.00032043434 0.00013149143 -3.688282e-05 9.810376e-06 0.0004118681 -0.00048316733 0.00018649602
-0.00019315281 -0.00015512152 -1.7641112e-05 -0.00010583164 6.27078e-05 0.00056755304 0.0005767486 -0.0015936989
0.00096459343 0.0007748712 -0.00048475838 -0.0014936331 0.0010842017 0.0009751761 -0.00011905849 3.556831e-05
0.002988752 -3.802503e-05 -0.00010736211 7.1221395e-05 0.0003623776 -0.0004168044 -0.002894718 0.00039746083
-0.00036193946 -0.0002930455 0.0021918034 0.00015882644 0.0020556347 0.00013658941 -0.0022749675 0.00040191037
-0.00030119615 0.00013405351 -0.0010988815 0.00028459518 0.00026713347 -0.00021112653 0.0005684475 0.0017046657
0.00030333074 -0.00091280014 -0.0013356528 0.00187658 6.955423e-05 3.5653713e-05 -0.0007654041 0.00020503369
0.0006531252 4.0134677e-05 0.0031423885 -0.0022171466 0.000796333 0.0004934984 -0.0032066419 7.558428e-05
0.0012694782 -9.460529e-05 0.0008740291 -0.0103120245 -0.008320156 0.00038289436 0.00010539063 0.00015833211
0.0114953015 9.64651e-06 -0.00031289482 0.0011488713 -0.00050018047 -0.0395416 0.00048927794 0.0003745058
0.0019823061 -0.00041177092 0.002735641 0.00020846036 0.00058997126 -0.0026352338 0.00047005637 0.1315465
0.0001968762 0.00015752632 5.8109636e-05 -0.00020908822 0.22649355 -0.3715284 0.0028109231 0.010115857
-0.00011880658 -4.1888154e-05 -0.0010929749 0.00012381306 -0.0031078563 1.1218257e-05 -0.0127315 -0.00049007207
-0.0009865323 0.12070251 0.0012302357 -8.440482e-05 0.049943194 -0.0001996741 -0.000276628 -0.00073604775
0.000364741 0.0003146162 -0.00076609175 -0.00040110634 -0.006224319 0.0048679286 0.0026528 -0.0005764338
-0.00047006796 -7.983357e-05 0.00079318817 0.0018979899 0.0014138258 3.514133e-05 -0.002128825 -0.00078749756
-0.00038436614 3.30972e-05 -2.4263304e-06 -0.0023767683 0.00063524675 -0.0004058785 0.0003798771 0.0008024262
-9.536738e-05 7.0962225e-05 -0.0015220896 0.0022823068 -0.0015016362 -0.00126343 -0.00046944685 -0.00021479001
0.00048757344 -0.00043519188 -0.0024776836 -0.00023884127 0.00044735963 -0.00075383886 -0.00017520538 -0.0004065828
-0.0022673507 0.00012523329 -9.08201e-05 -3.9989973e-07 -0.0004724075 -0.0010799406 -0.00094395457 -4.521296e-05
0.00086111465 -8.521104e-05 -0.0017875397 0.00045439356 0.00101459 -0.0018036965 -0.0026794286 -0.0012923009
-0.003071606 -5.76181e-05 -0.00023408313 9.494989e-06 -0.0011526201 -0.00010993721 0.00084914383 0.0013562911
0.00028436742 -0.00045590958 -0.000834968 -6.239171e-05 -0.0013703089 0.00060209597 -0.0022719065 0.0012811769
0.0006106697 -0.00012404277 -0.0012429297 0.0020376188 -0.003484064 9.343526e-05 -0.00091283786 -0.0011549101
0.00011495609 -0.00023473291 -0.0010105281 0.0029841103 -0.00040251226 0.0009032559 3.5800724e-05 0.0015152453
-0.0001282756 -0.00010284248 0.0018818263 1.6733655e-05 0.0021904223 -0.003479387 -0.00093498226 2.6759732e-05
0.00024474764 0.004132682 -0.002434647 -0.00020029386 -0.00046998553 0.0003170477 0.00018049068 0.001968801
-0.00059258123 0.00015888318 0.00029691472 -0.00059410004 0.00017850392 -3.0481091e-05 0.00036042146 0.00010507909
-0.0012925193 0.00027331457 0.00048409912 7.1344046e-05 -0.00039385614 -0.0017919828 -3.4658726e-05 -0.0038431857
0.0016164753 -8.212992e-05 0.00017144247 -0.00020568621 -6.5542736e-05 -1.7484364e-05 -0.0007151148 0.0018629086
-9.217576e-05 -6.0631693e-05 0.0008323031 0.0002257092 -0.00048044245 -0.00063912384 0.0013641794 -0.0028558369
00000000: 0b4a c4b8 f905 1eb9 3ef4 1739 d37c 54b9
00000010: 24ef 0b3b 2fcd 93b9 3e3c e4b9 487e e5b7
00000020: 8da4 ecb8 f8ff a739 f6e0 0939 a0b2 1ab8
00000030: 3e97 2437 00f0 d739 9f51 fdb9 258e 4339
00000040: 1089 4ab9 1ea8 22b9 00fc 93b7 eef1 ddb8
00000050: fe81 8338 d7c7 143a f230 173a a9e3 d0ba
00000060: c5dc 7c3a ba20 4b3a 2b27 feb9 03c6 c3ba
00000070: c61b 8e3a f6a2 7f3a 0aaf f9b8 2f2f 1538
00000080: f0de 433b 117d 1fb8 9827 e1b8 b25c 9538
00000090: 80fd bd39 8a86 dab9 4fb5 3dbb 4a62 d039
000000a0: b1c2 bdb9 e7a3 99b9 5ca4 0f3b a68a 2639
000000b0: d4b7 063b 7139 0f39 9f17 15bb 7fb7 d239
000000c0: dde9 9db9 b790 0c39 5808 90ba b835 9539
000000d0: 0c0e 8c39 d961 5db9 de03 153a 176f df3a
000000e0: 5d08 9f39 fb48 6fba 1211 afba 93f7 f53a
000000f0: a5dd 9138 e28a 1538 66a5 48ba 50fe 5639
00000100: 7d36 2b3a 4856 2838 88f0 4d3b 8c4d 11bb
00000110: 01c1 503a 1e5e 013a 8626 52bb 0083 9e38
00000120: 9f64 a63a d466 c6b8 1a1f 653a c4f3 28bc
00000130: 4351 08bc 36bf c839 2a05 dd38 f405 2639
00000140: ca56 3c3c 72d7 2137 080c a4b9 b995 963a
00000150: 8b1e 03ba 5ff6 21bd e342 003a 5159 c439
00000160: 94e9 013b f5e2 d7b9 7148 333b 2796 5a39
00000170: 4da8 1a3a e3b3 2cbb e671 f639 20b4 063e
00000180: 8d70 4e39 a62d 2539 bfba 7338 b13e 5bb9
00000190: eded 673e f838 bebe 7737 383b fbbc 253c
000001a0: cc27 f9b8 10b1 2fb8 2742 8fba d1d3 0139
000001b0: 2dad 4bbb 0c36 3c37 c897 50bc 2e78 00ba
000001c0: 884e 81ba e132 f73d dc3f a13a 7e02 b1b8
000001d0: 3c91 4c3d 9c5f 51b9 6208 91b9 54f3 40ba
000001e0: b53a bf39 12f3 a439 8cd3 48ba 954b d2b9
000001f0: 5ff5 cbbb 2583 9f3b 99da 2d3b d11b 17ba
00000200: 7473 f6b9 526c a7b8 f5ed 4f3a f9c5 f83a
00000210: 1f50 b93a b764 1338 c283 0bbb 1170 4eba
00000220: c084 c9b9 d9d1 0a38 0ad4 22b6 8ec3 1bbb
00000230: b086 263a 17cc d4b9 3e2a c739 e959 523a
00000240: f9ff c7b8 8ed1 9438 da80 c7ba c192 153b
00000250: 8dd2 c4ba ad99 a5ba 1720 f6b9 4139 61b9
00000260: 00a1 ff39 772a e4b9 a260 22bb 7771 7ab9
00000270: 988b ea39 459d 45ba 56b7 37b9 9f2a d5b9
00000280: d597 14bb 0e51 0339 ab76 beb8 cdb1 d6b4
00000290: 76ad f7b9 cb8c 8dba b873 77ba 0ca3 3db8
000002a0: 6dbc 613a 54b3 b2b8 e14b eaba ac3b ee39
000002b0: fefb 843a 036a ecba 5a99 2fbb 6c62 a9ba
000002c0: ff4c 49bb f7aa 71b8 3674 75b9 ab4c 1f37
000002d0: 8313 97ba 178e e6b8 1499 5e3a 94c5 b13a
000002e0: 2617 9539 2607 efb9 c1e1 5aba 4bd8 82b8
000002f0: f09b b3ba fad5 1d3a 44e4 14bb 2aed a73a
00000300: 5a15 203a 7a11 02b9 cde9 a2ba 9289 053b
00000310: e554 64bb acf2 c338 834b 6fba 5a60 97ba
00000320: 9514 f138 a322 76b9 b273 84ba 1091 433b
00000330: 4808 d3b9 7ac8 6c3a bc28 1638 329b c63a
00000340: b881 06b9 23ad d7b8 9da7 f63a 405f 8c37
00000350: 308d 0f3b 6d06 64bb 9919 75ba 167a e037
00000360: 7951 8039 736b 873b 998e 1fbb f905 52b9
00000370: 6468 f6b9 6c39 a639 1942 3d39 0007 013b
00000380: 7457 1bba e199 2639 38ab 9b39 61bd 1bba
00000390: c82c 3b39 a5b1 ffb7 f3f6 bc39 e85d dc38
000003a0: c069 a9ba a94b 8f39 afce fd39 8b9e 9538
000003b0: 7a7e ceb9 f7e0 eaba 865e 11b8 f5dd 7bbb
000003c0: e9df d33a 2a3d acb8 3dc5 3339 79ad 57b9
000003d0: fd73 89b8 63ab 92b7 8b76 3bba d72c f43a
000003e0: 7c4e c1b8 c94e 7eb8 ea2e 5a3a 5aac 6c39
000003f0: e5e3 fbb9 e08a 27ba 44ce b23a fe28 3bbb

hidden.hidden_0.node.W_incoming f4 [64, 16]
0.0010728398 -8.376147e-05 -0.0012316471 -5.543687e-05 0.0005418769 3.373479e-05 0.0007378469 -0.0003222214
-0.0007963083 0.0024224045 0.0014602443 5.5487344e-05 -0.0003501787 0.0014689612 -0.000115554736 0.000294396
-0.0004160986 -0.00013496808 -0.3017363 0.19538645 0.000120368946 -0.0003576119 -0.0003103186 0.22647364
0.0063296733 -0.066553734 1.5936783e-05 -0.26038155 0.019448128 0.0012112893 -0.16093554 0.31113407
0.00012043185 -0.0003571553 0.00056543824 -2.8833115e-06 -0.001961261 0.00017669064 -0.0004242712 -8.526028e-05
-0.00033283158 0.0011732448 0.0001658793 0.00025864487 0.000113795926 -0.00042288925 0.00029791068 0.0012254211
-0.00047012576 0.00016540542 -8.0170146e-05 4.60886e-05 -6.436237e-05 -3.183087e-05 0.0016852407 7.290805e-05
0.00014860358 -0.0007865402 9.71981e-05 4.8635648e-05 1.1663858e-05 -7.247258e-05 0.00093735976 0.00063054083
0.0017462356 0.00046394693 -0.006688968 7.954606e-05 0.0007638377 -0.00047143069 -0.0018329151 0.00023198061
-0.00013150781 -0.0020082318 -1.8110284e-05 -0.0003559046 -1.6248396e-05 -0.00037278532 3.7905556e-05 0.0006315774
-4.2831984e-05 -0.00013601761 -0.3393496 9.047903e-05 -0.000118160926 -0.00096934073 -0.0019285658 -0.0042760596
-0.00013490605 -0.06545031 0.00033158806 -0.15142597 0.0002245014 0.0032378328 -0.3419761 0.15448774
3.2797918e-05 4.4053588e-05 0.0022167778 4.2757758e-05 0.0011246797 0.00029660895 0.00049445656 -0.000498019
-2.0927311e-05 0.002171743 -0.00013396429 2.4489638e-05 0.00025896265 8.265021e-06 4.3847784e-05 -0.00016303835
0.000117800024 0.0002239513 -0.0009278801 2.4743871e-05 -0.0010485303 0.0001844226 -0.0009273655 5.016499e-06
-3.6206045e-05 -0.0018800333 0.00013276242 1.3136308e-05 6.1459425e-05 6.8618046e-06 0.00022723609 -0.000686608
0.0011230998 0.00085904 -0.16592854 0.00049558014 -0.00028382632 -0.002152795 0.0012288579 -0.0058420687
0.0006458257 -0.048357144 -0.00079423835 -0.037027866 -0.00047514055 0.0040485943 -0.10353622 -0.15514734
0.0006955418 0.0025969283 -0.0011487261 -0.0007328669 -0.00061754254 -2.790983e-07 0.00034013894 -0.003044239
0.00043510727 0.00017508253 0.0025315187 0.0004056513 -0.0004843319 0.00016045834 0.0019161672 -0.000117340154
-9.0050715e-05 0.0001408724 -0.0029077122 0.00096013054 0.00045947888 0.0003622715 -0.0013564603 0.0002797434
-1.0501203e-05 -0.0015087415 2.246673e-05 6.269729e-05 -0.00030985865 0.0005402606 -0.008101541 -0.0030252072
0.00016224703 -9.617895e-05 -0.45401955 -0.00014063618 0.000848158 0.13109179 0.0006997983 -0.08958589
0.025751729 -0.0022531552 -1.7603603e-05 -0.3838557 -8.524357e-05 -0.0023774172 -0.41093355 -0.47616896
1.781131e-05 7.030484e-05 0.0012339873 0.02094707 -0.00081028335 -0.07870662 0.00010843237 0.040841144
-4.274093e-06 -0.00092215784 0.04137454 -2.4346762e-05 -4.9155336e-05 -1.4822058e-05 0.0029605993 5.968755e-05
0.00044491974 -4.7219422e-05 0.10287118 -0.020697018 -0.00070928014 0.00011052471 1.8683382e-05 -0.0062039024
-4.5661578e-05 -0.0058192457 -8.192923e-05 0.12011019 0.000104026934 -0.00038124854 0.046178777 -0.015769787
-0.000114096096 0.00021466966 -0.0024178126 0.00010395065 -0.0014735693 0.0001890869 -0.0016604629 0.0002872099
4.4689572e-05 -0.0006052779 0.00029352144 -1.7012131e-05 0.00023208745 2.3144363e-05 -0.0047507505 -0.0017955046
0.0005007034 0.0002905731 0.08247677 -7.453876e-05 0.00043432094 -1.4358839e-05 0.0012161827 0.002273172
7.3255156e-05 -0.0013169617 2.9393233e-05 0.119539 -0.00018336855 7.8648925e-05 0.18104085 -0.0010642437
00000000: 889e 8c3a 19a9 afb8 386f a1ba e384 68b8
00000010: be0c 0e3a 747e 0d38 116c 413a d3ef a8b9
00000020: 58bf 50ba 34c1 1e3b ab65 bf3a 15bb 6838
00000030: 3198 b7b9 298a c03a fa55 f2b8 2a59 9a39
00000040: cf27 dab9 3886 0db9 2e7d 9abe 6313 483e
00000050: 966e fc38 db7d bbb9 42b2 a2b9 b5e8 673e
00000060: 2669 cf3b 534d 88bd fbaf 8537 bb50 85be
00000070: ae51 9f3c 20c4 9e3a 49cc 24be f74c 9f3e
00000080: 5b90 fc38 9340 bbb9 eb39 143a ea7e 41b6
00000090: 8088 00bb 0846 3939 b770 deb9 c4cd b2b8
000000a0: e67f aeb9 90c7 993a e3ef 2d39 ba9a 8739
000000b0: b9a5 ee38 3cb7 ddb9 e530 9c39 4f9e a03a
000000c0: 367b f6b9 ae70 2d39 0521 a8b8 424f 4138
000000d0: 49fa 86b8 2382 05b8 4be3 dc3a 36e6 9838
000000e0: 78d2 1b39 d22f 4eba d5d6 cb38 21fe 4b38
000000f0: e3af 4337 6cfc 97b8 26b9 753a e14a 253a
00000100: f2e1 e43a e73d f339 212f dbbb f7d1 a638
00000110: 483c 483a 5b2a f7b9 6d3e f0ba d23f 7339
00000120: 5ce5 09b9 8a9c 03bb 8aeb 97b7 b598 bab9
00000130: 2a4d 88b7 6672 c3b9 c8fc 1e38 7190 253a
00000140: 7ea6 33b8 f39f 0eb9 3bbf adbe 8fbf bd38
00000150: 2acd f7b8 5b1b 7eba eec7 fcba 301e 8cbb
00000160: 9175 0db9 d00a 86bd ffd8 ad39 690f 1bbe
00000170: 2368 6b39 d231 543b 7e17 afbe 0932 1e3e
00000180: 7f90 0938 2ec6 3838 5c47 113b cb56 3338
00000190: fd69 933a 2e82 9b39 6b9e 013a 7d8d 02ba
000001a0: 0f8d afb7 cd53 0e3b c478 0cb9 196f cd37
000001b0: 61c5 8739 ffa9 0a37 33e9 3738 46f5 2ab9
000001c0: 680b f738 78d4 6a39 fb3c 73ba 0f91 cf37
000001d0: d76e 89ba 9161 4139 721a 73ba 6653 a836
000001e0: f2db 17b8 736b f6ba 2436 0b39 0364 5c37
000001f0: c7e3 8038 743e e636 3946 6e39 7cfd 33ba
00000200: fa34 933a 3331 613a 2ce9 29be d2e9 013a
00000210: 86ce 94b9 e815 0dbb a111 a13a d36e bfbb
00000220: a14c 293a 2412 46bd 6f34 50ba 88aa 17bd
00000230: 491c f9b9 12aa 843b cc0a d4bd f2de 1ebe
00000240: 0555 363a 3a31 2a3b da90 96ba dd1d 40ba
00000250: 94e2 21ba fad6 95b4 ad54 b239 db81 47bb
00000260: 1c1f e439 5c96 3739 d6e7 253b 99ad d439
00000270: eded fdb9 b540 2839 e727 fb3a 8414 f6b8
00000280: 9cd9 bcb8 26b7 1339 518f 3ebb 45b1 7b3a
00000290: 36e6 f039 42ef bd39 41cb b1ba 86aa 9239
000002a0: 532e 30b7 f7c0 c5ba ef76 bc37 5a7c 8338
000002b0: 8674 a2b9 46a0 0d3a 53bc 04bc 8e42 46bb
000002c0: db20 2a39 aeb3 c9b8 4075 e8be bd77 13b9
000002d0: eb56 5e3a ed3c 063e ab72 373a cf78 b7bd
000002e0: 4af5 d23c aca9 13bb 73ab 93b7 bc88 c4be
000002f0: cbc4 b2b8 71ce 1bbb e265 d2be 6bcc f3be
00000300: 7f69 9537 a070 9338 bebd a13a 3199 ab3c
00000310: 3269 54ba f030 a1bd 2f66 e338 0b49 273d
00000320: 2e6a 8fb6 f7bc 71ba 5a78 293d 463c ccb7
00000330: 242c 4eb8 41ac 78b7 9d06 423b 0559 7a38
00000340: 1e44 e939 780d 46b8 20ae d23d cb8c a9bc
00000350: fcee 39ba 80c9 e738 42ba 9c37 1b4a cbbb
00000360: bf84 3fb8 5faf bebb 6cd1 abb8 55fc f53d
00000370: 0929 da38 50e2 c7b9 f525 3d3d a42f 81bc
00000380: e046 efb8 f318 6139 2a74 1ebb 1500 da38
00000390: c824 c1ba a145 4639 e4a3 d9ba a994 9639
000003a0: 1071 3b38 83ab 1eba c8e3 9939 46b5 8eb7
000003b0: 805c 7339 2426 c237 2fac 9bbb 2357 ebba
000003c0: a341 033a 1058 9839 95e9 a83d b151 9cb8
000003d0: 92b5 e339 bee6 70b7 5268 9f3a 7ff9 143b
000003e0: 90a0 9938 e79d acba 7d91 f637 ddd0 f43d
000003f0: 9f46 40b9 52f0 a438 c662 393e 187e 8bba

hidden.hidden_0.node.bias f4 [64]
0.007885144 0.20240532 9.2855225e-06 -0.00021557292 -0.0061946562 0.22585875 -0.00030860747 -0.02205456
0.12286361 -0.002756839 -0.0050794897 -0.0059324703 -0.103996575 -0.00362018 -0.00052005146 -0.06836477
-3.127334e-05 -0.07436727 -0.0026107645 0.017097542 -0.01857307 -0.00023666136 0.04699439 -0.039328087
5.5456996e-05 -0.0014323256 0.08190667 -0.12596697 -0.00024275221 -0.012077698 -0.004780158 0.122981116
-0.00022461593 -0.002198401 -0.004461568 0.03274244 -8.695235e-05 0.0003808802 -0.0011429728 -0.031756073
-0.06756827 -0.0005105186 0.003656353 -0.004052784 -0.0025359148 -0.000366842 -0.059151564 -0.0022380787
0.20772965 -0.015404706 0.054577686 -0.0029625164 0.05853257 -2.6054617e-05 1.3385518e-05 -0.019090474
-0.00043831315 -0.0222574 5.5870096e-05 -0.0010120498 -2.443042e-05 0.006793306 -0.029201703 -0.054874696
00000000: b130 013c 5743 4f3e 04c9 1b37 6a0b 62b9
00000010: 8bfc cabb 8447 673e 98cc a1b9 c4ab b4bc
00000020: eb9f fb3d 15ac 34bb d971 a6bb 2b65 c2bb
00000030: 28fc d4bd 8b40 6dbb 1054 08ba d402 8cbd
00000040: 7e2b 03b8 de4d 98bd 5c19 2bbb 2510 8c3c
00000050: 8d26 98bc 4d28 78b9 317d 403d 7d16 21bd
00000060: 7f9a 6838 dfbc bbba afbe a73d 7cfd 00be
00000070: 4d8b 7eb9 89e1 45bc dfa2 9cbb 86dd fb3d
00000080: e186 6bb9 0c13 10bb 5832 92bb f01c 063d
00000090: 305a b6b8 e0b0 c739 cecf 95ba a812 02bd
000000a0: 3c61 8abd 53d4 05ba 6d9f 6f3b 37cd 84bb
000000b0: 9731 26bb b354 c0b9 e948 72bd bbac 12bb
000000c0: 15b7 543e 0564 7cbc da8c 5f3d c726 42bb
000000d0: d9bf 6f3d dd8f dab7 5d92 6037 a063 9cbc
000000e0: 65cd e5b9 2755 b6bc 0f56 6a38 c2a6 84ba
000000f0: edef ccb7 629a de3b 6938 efbc 4ac4 60bd
